{"format": "graph-model", "generatedBy": "2.3.0", "convertedBy": "TensorFlow.js Converter v3.18.0", "signature": {"inputs": {"image": {"name": "0:0", "dtype": "DT_FLOAT", "tensorShape": {"dim": [{"size": "1"}, {"size": "3"}, {"size": "384"}, {"size": "384"}]}}}, "outputs": {"default": {"name": "1080:0", "dtype": "DT_FLOAT", "tensorShape": {"dim": [{"size": "1"}, {"size": "384"}, {"size": "384"}]}}}}, "modelTopology": {"node": [{"name": "ExpandDims_353", "op": "Const", "attr": {"dtype": {"type": "DT_FLOAT"}, "value": {"tensor": {"dtype": "DT_FLOAT", "tensorShape": {"dim": [{"size": "1"}, {"size": "256"}, {"size": "1"}, {"size": "1"}]}}}}}, {"name": "Const_290", "op": "Const", "attr": {"value": {"tensor": {"dtype": "DT_INT32", "tensorShape": {"dim": [{"size": "4"}, {"size": "2"}]}}}, "dtype": {"type": "DT_INT32"}}}, {"name": "split_240", "op": "Const", "attr": {"dtype": {"type": "DT_FLOAT"}, "value": {"tensor": {"dtype": "DT_FLOAT", "tensorShape": {"dim": [{"size": "3"}, {"size": "3"}, {"size": "256"}, {"size": "256"}]}}}}}, {"name": "ExpandDims_350", "op": "Const", "attr": {"value": {"tensor": {"dtype": "DT_FLOAT", "tensorShape": {"dim": [{"size": "1"}, {"size": "256"}, {"size": "1"}, {"size": "1"}]}}}, "dtype": {"type": "DT_FLOAT"}}}, {"name": "Const_293", "op": "Const", "attr": {"dtype": {"type": "DT_INT32"}, "value": {"tensor": {"dtype": "DT_INT32", "tensorShape": {"dim": [{"size": "4"}, {"size": "2"}]}}}}}, {"name": "split_242", "op": "Const", "attr": {"dtype": {"type": "DT_FLOAT"}, "value": {"tensor": {"dtype": "DT_FLOAT", "tensorShape": {"dim": [{"size": "3"}, {"size": "3"}, {"size": "256"}, {"size": "256"}]}}}}}, {"name": "ExpandDims_341", "op": "Const", "attr": {"dtype": {"type": "DT_FLOAT"}, "value": {"tensor": {"dtype": "DT_FLOAT", "tensorShape": {"dim": [{"size": "1"}, {"size": "256"}, {"size": "1"}, {"size": "1"}]}}}}}, {"name": "Const_278", "op": "Const", "attr": {"dtype": {"type": "DT_INT32"}, "value": {"tensor": {"dtype": "DT_INT32", "tensorShape": {"dim": [{"size": "4"}, {"size": "2"}]}}}}}, {"name": "split_232", "op": "Const", "attr": {"value": {"tensor": {"dtype": "DT_FLOAT", "tensorShape": {"dim": [{"size": "3"}, {"size": "3"}, {"size": "256"}, {"size": "256"}]}}}, "dtype": {"type": "DT_FLOAT"}}}, {"name": "ExpandDims_338", "op": "Const", "attr": {"dtype": {"type": "DT_FLOAT"}, "value": {"tensor": {"dtype": "DT_FLOAT", "tensorShape": {"dim": [{"size": "1"}, {"size": "256"}, {"size": "1"}, {"size": "1"}]}}}}}, {"name": "Const_281", "op": "Const", "attr": {"dtype": {"type": "DT_INT32"}, "value": {"tensor": {"dtype": "DT_INT32", "tensorShape": {"dim": [{"size": "4"}, {"size": "2"}]}}}}}, {"name": "split_234", "op": "Const", "attr": {"value": {"tensor": {"dtype": "DT_FLOAT", "tensorShape": {"dim": [{"size": "3"}, {"size": "3"}, {"size": "256"}, {"size": "256"}]}}}, "dtype": {"type": "DT_FLOAT"}}}, {"name": "ExpandDims_329", "op": "Const", "attr": {"dtype": {"type": "DT_FLOAT"}, "value": {"tensor": {"dtype": "DT_FLOAT", "tensorShape": {"dim": [{"size": "1"}, {"size": "256"}, {"size": "1"}, {"size": "1"}]}}}}}, {"name": "Const_266", "op": "Const", "attr": {"dtype": {"type": "DT_INT32"}, "value": {"tensor": {"dtype": "DT_INT32", "tensorShape": {"dim": [{"size": "4"}, {"size": "2"}]}}}}}, {"name": "split_224", "op": "Const", "attr": {"value": {"tensor": {"dtype": "DT_FLOAT", "tensorShape": {"dim": [{"size": "3"}, {"size": "3"}, {"size": "256"}, {"size": "256"}]}}}, "dtype": {"type": "DT_FLOAT"}}}, {"name": "ExpandDims_326", "op": "Const", "attr": {"dtype": {"type": "DT_FLOAT"}, "value": {"tensor": {"dtype": "DT_FLOAT", "tensorShape": {"dim": [{"size": "1"}, {"size": "256"}, {"size": "1"}, {"size": "1"}]}}}}}, {"name": "Const_269", "op": "Const", "attr": {"value": {"tensor": {"dtype": "DT_INT32", "tensorShape": {"dim": [{"size": "4"}, {"size": "2"}]}}}, "dtype": {"type": "DT_INT32"}}}, {"name": "split_226", "op": "Const", "attr": {"value": {"tensor": {"dtype": "DT_FLOAT", "tensorShape": {"dim": [{"size": "3"}, {"size": "3"}, {"size": "256"}, {"size": "256"}]}}}, "dtype": {"type": "DT_FLOAT"}}}, {"name": "Const_254", "op": "Const", "attr": {"dtype": {"type": "DT_INT32"}, "value": {"tensor": {"dtype": "DT_INT32", "tensorShape": {"dim": [{"size": "4"}, {"size": "2"}]}}}}}, {"name": "split_216", "op": "Const", "attr": {"value": {"tensor": {"dtype": "DT_FLOAT", "tensorShape": {"dim": [{"size": "3"}, {"size": "3"}, {"size": "256"}, {"size": "256"}]}}}, "dtype": {"type": "DT_FLOAT"}}}, {"name": "ExpandDims_314", "op": "Const", "attr": {"value": {"tensor": {"dtype": "DT_FLOAT", "tensorShape": {"dim": [{"size": "1"}, {"size": "256"}, {"size": "1"}, {"size": "1"}]}}}, "dtype": {"type": "DT_FLOAT"}}}, {"name": "Const_257", "op": "Const", "attr": {"value": {"tensor": {"dtype": "DT_INT32", "tensorShape": {"dim": [{"size": "4"}, {"size": "2"}]}}}, "dtype": {"type": "DT_INT32"}}}, {"name": "split_218", "op": "Const", "attr": {"value": {"tensor": {"dtype": "DT_FLOAT", "tensorShape": {"dim": [{"size": "3"}, {"size": "3"}, {"size": "256"}, {"size": "256"}]}}}, "dtype": {"type": "DT_FLOAT"}}}, {"name": "ExpandDims_317", "op": "Const", "attr": {"value": {"tensor": {"dtype": "DT_FLOAT", "tensorShape": {"dim": [{"size": "1"}, {"size": "256"}, {"size": "1"}, {"size": "1"}]}}}, "dtype": {"type": "DT_FLOAT"}}}, {"name": "ConstantFolding/split_204-folded-0", "op": "Const", "attr": {"value": {"tensor": {"dtype": "DT_FLOAT", "tensorShape": {"dim": [{"size": "3"}, {"size": "3"}, {"size": "64"}, {"size": "64"}]}}}, "dtype": {"type": "DT_FLOAT"}}}, {"name": "ConstantFolding/split_204-folded-1", "op": "Const", "attr": {"dtype": {"type": "DT_FLOAT"}, "value": {"tensor": {"dtype": "DT_FLOAT", "tensorShape": {"dim": [{"size": "3"}, {"size": "3"}, {"size": "64"}, {"size": "64"}]}}}}}, {"name": "ConstantFolding/split_204-folded-2", "op": "Const", "attr": {"value": {"tensor": {"dtype": "DT_FLOAT", "tensorShape": {"dim": [{"size": "3"}, {"size": "3"}, {"size": "64"}, {"size": "64"}]}}}, "dtype": {"type": "DT_FLOAT"}}}, {"name": "ConstantFolding/split_204-folded-3", "op": "Const", "attr": {"dtype": {"type": "DT_FLOAT"}, "value": {"tensor": {"dtype": "DT_FLOAT", "tensorShape": {"dim": [{"size": "3"}, {"size": "3"}, {"size": "64"}, {"size": "64"}]}}}}}, {"name": "ConstantFolding/split_204-folded-4", "op": "Const", "attr": {"dtype": {"type": "DT_FLOAT"}, "value": {"tensor": {"dtype": "DT_FLOAT", "tensorShape": {"dim": [{"size": "3"}, {"size": "3"}, {"size": "64"}, {"size": "64"}]}}}}}, {"name": "ConstantFolding/split_204-folded-5", "op": "Const", "attr": {"value": {"tensor": {"dtype": "DT_FLOAT", "tensorShape": {"dim": [{"size": "3"}, {"size": "3"}, {"size": "64"}, {"size": "64"}]}}}, "dtype": {"type": "DT_FLOAT"}}}, {"name": "ConstantFolding/split_204-folded-6", "op": "Const", "attr": {"dtype": {"type": "DT_FLOAT"}, "value": {"tensor": {"dtype": "DT_FLOAT", "tensorShape": {"dim": [{"size": "3"}, {"size": "3"}, {"size": "64"}, {"size": "64"}]}}}}}, {"name": "ConstantFolding/split_204-folded-7", "op": "Const", "attr": {"dtype": {"type": "DT_FLOAT"}, "value": {"tensor": {"dtype": "DT_FLOAT", "tensorShape": {"dim": [{"size": "3"}, {"size": "3"}, {"size": "64"}, {"size": "64"}]}}}}}, {"name": "ConstantFolding/split_204-folded-8", "op": "Const", "attr": {"value": {"tensor": {"dtype": "DT_FLOAT", "tensorShape": {"dim": [{"size": "3"}, {"size": "3"}, {"size": "64"}, {"size": "64"}]}}}, "dtype": {"type": "DT_FLOAT"}}}, {"name": "ConstantFolding/split_204-folded-9", "op": "Const", "attr": {"value": {"tensor": {"dtype": "DT_FLOAT", "tensorShape": {"dim": [{"size": "3"}, {"size": "3"}, {"size": "64"}, {"size": "64"}]}}}, "dtype": {"type": "DT_FLOAT"}}}, {"name": "ConstantFolding/split_204-folded-10", "op": "Const", "attr": {"value": {"tensor": {"dtype": "DT_FLOAT", "tensorShape": {"dim": [{"size": "3"}, {"size": "3"}, {"size": "64"}, {"size": "64"}]}}}, "dtype": {"type": "DT_FLOAT"}}}, {"name": "ConstantFolding/split_204-folded-11", "op": "Const", "attr": {"value": {"tensor": {"dtype": "DT_FLOAT", "tensorShape": {"dim": [{"size": "3"}, {"size": "3"}, {"size": "64"}, {"size": "64"}]}}}, "dtype": {"type": "DT_FLOAT"}}}, {"name": "ConstantFolding/split_204-folded-12", "op": "Const", "attr": {"value": {"tensor": {"dtype": "DT_FLOAT", "tensorShape": {"dim": [{"size": "3"}, {"size": "3"}, {"size": "64"}, {"size": "64"}]}}}, "dtype": {"type": "DT_FLOAT"}}}, {"name": "ConstantFolding/split_204-folded-13", "op": "Const", "attr": {"value": {"tensor": {"dtype": "DT_FLOAT", "tensorShape": {"dim": [{"size": "3"}, {"size": "3"}, {"size": "64"}, {"size": "64"}]}}}, "dtype": {"type": "DT_FLOAT"}}}, {"name": "ConstantFolding/split_204-folded-14", "op": "Const", "attr": {"value": {"tensor": {"dtype": "DT_FLOAT", "tensorShape": {"dim": [{"size": "3"}, {"size": "3"}, {"size": "64"}, {"size": "64"}]}}}, "dtype": {"type": "DT_FLOAT"}}}, {"name": "ConstantFolding/split_204-folded-15", "op": "Const", "attr": {"value": {"tensor": {"dtype": "DT_FLOAT", "tensorShape": {"dim": [{"size": "3"}, {"size": "3"}, {"size": "64"}, {"size": "64"}]}}}, "dtype": {"type": "DT_FLOAT"}}}, {"name": "ConstantFolding/split_204-folded-16", "op": "Const", "attr": {"value": {"tensor": {"dtype": "DT_FLOAT", "tensorShape": {"dim": [{"size": "3"}, {"size": "3"}, {"size": "64"}, {"size": "64"}]}}}, "dtype": {"type": "DT_FLOAT"}}}, {"name": "ConstantFolding/split_204-folded-17", "op": "Const", "attr": {"value": {"tensor": {"dtype": "DT_FLOAT", "tensorShape": {"dim": [{"size": "3"}, {"size": "3"}, {"size": "64"}, {"size": "64"}]}}}, "dtype": {"type": "DT_FLOAT"}}}, {"name": "ConstantFolding/split_204-folded-18", "op": "Const", "attr": {"dtype": {"type": "DT_FLOAT"}, "value": {"tensor": {"dtype": "DT_FLOAT", "tensorShape": {"dim": [{"size": "3"}, {"size": "3"}, {"size": "64"}, {"size": "64"}]}}}}}, {"name": "ConstantFolding/split_204-folded-19", "op": "Const", "attr": {"value": {"tensor": {"dtype": "DT_FLOAT", "tensorShape": {"dim": [{"size": "3"}, {"size": "3"}, {"size": "64"}, {"size": "64"}]}}}, "dtype": {"type": "DT_FLOAT"}}}, {"name": "ConstantFolding/split_204-folded-20", "op": "Const", "attr": {"value": {"tensor": {"dtype": "DT_FLOAT", "tensorShape": {"dim": [{"size": "3"}, {"size": "3"}, {"size": "64"}, {"size": "64"}]}}}, "dtype": {"type": "DT_FLOAT"}}}, {"name": "ConstantFolding/split_204-folded-21", "op": "Const", "attr": {"dtype": {"type": "DT_FLOAT"}, "value": {"tensor": {"dtype": "DT_FLOAT", "tensorShape": {"dim": [{"size": "3"}, {"size": "3"}, {"size": "64"}, {"size": "64"}]}}}}}, {"name": "ConstantFolding/split_204-folded-22", "op": "Const", "attr": {"value": {"tensor": {"dtype": "DT_FLOAT", "tensorShape": {"dim": [{"size": "3"}, {"size": "3"}, {"size": "64"}, {"size": "64"}]}}}, "dtype": {"type": "DT_FLOAT"}}}, {"name": "ConstantFolding/split_204-folded-23", "op": "Const", "attr": {"value": {"tensor": {"dtype": "DT_FLOAT", "tensorShape": {"dim": [{"size": "3"}, {"size": "3"}, {"size": "64"}, {"size": "64"}]}}}, "dtype": {"type": "DT_FLOAT"}}}, {"name": "ConstantFolding/split_204-folded-24", "op": "Const", "attr": {"dtype": {"type": "DT_FLOAT"}, "value": {"tensor": {"dtype": "DT_FLOAT", "tensorShape": {"dim": [{"size": "3"}, {"size": "3"}, {"size": "64"}, {"size": "64"}]}}}}}, {"name": "ConstantFolding/split_204-folded-25", "op": "Const", "attr": {"value": {"tensor": {"dtype": "DT_FLOAT", "tensorShape": {"dim": [{"size": "3"}, {"size": "3"}, {"size": "64"}, {"size": "64"}]}}}, "dtype": {"type": "DT_FLOAT"}}}, {"name": "ConstantFolding/split_204-folded-26", "op": "Const", "attr": {"value": {"tensor": {"dtype": "DT_FLOAT", "tensorShape": {"dim": [{"size": "3"}, {"size": "3"}, {"size": "64"}, {"size": "64"}]}}}, "dtype": {"type": "DT_FLOAT"}}}, {"name": "ConstantFolding/split_204-folded-27", "op": "Const", "attr": {"dtype": {"type": "DT_FLOAT"}, "value": {"tensor": {"dtype": "DT_FLOAT", "tensorShape": {"dim": [{"size": "3"}, {"size": "3"}, {"size": "64"}, {"size": "64"}]}}}}}, {"name": "ConstantFolding/split_204-folded-28", "op": "Const", "attr": {"dtype": {"type": "DT_FLOAT"}, "value": {"tensor": {"dtype": "DT_FLOAT", "tensorShape": {"dim": [{"size": "3"}, {"size": "3"}, {"size": "64"}, {"size": "64"}]}}}}}, {"name": "ConstantFolding/split_204-folded-29", "op": "Const", "attr": {"value": {"tensor": {"dtype": "DT_FLOAT", "tensorShape": {"dim": [{"size": "3"}, {"size": "3"}, {"size": "64"}, {"size": "64"}]}}}, "dtype": {"type": "DT_FLOAT"}}}, {"name": "ConstantFolding/split_204-folded-30", "op": "Const", "attr": {"dtype": {"type": "DT_FLOAT"}, "value": {"tensor": {"dtype": "DT_FLOAT", "tensorShape": {"dim": [{"size": "3"}, {"size": "3"}, {"size": "64"}, {"size": "64"}]}}}}}, {"name": "split_205/split_dim", "op": "Const", "attr": {"value": {"tensor": {"dtype": "DT_INT32", "tensorShape": {}}}, "dtype": {"type": "DT_INT32"}}}, {"name": "split_202", "op": "Const", "attr": {"value": {"tensor": {"dtype": "DT_FLOAT", "tensorShape": {"dim": [{"size": "1"}, {"size": "1"}, {"size": "2048"}, {"size": "2048"}]}}}, "dtype": {"type": "DT_FLOAT"}}}, {"name": "ExpandDims_305", "op": "Const", "attr": {"dtype": {"type": "DT_FLOAT"}, "value": {"tensor": {"dtype": "DT_FLOAT", "tensorShape": {"dim": [{"size": "1"}, {"size": "2048"}, {"size": "1"}, {"size": "1"}]}}}}}, {"name": "Const_237", "op": "Const", "attr": {"value": {"tensor": {"dtype": "DT_INT32", "tensorShape": {"dim": [{"size": "4"}, {"size": "2"}]}}}, "dtype": {"type": "DT_INT32"}}}, {"name": "ConstantFolding/split_204-folded-31", "op": "Const", "attr": {"value": {"tensor": {"dtype": "DT_FLOAT", "tensorShape": {"dim": [{"size": "3"}, {"size": "3"}, {"size": "64"}, {"size": "64"}]}}}, "dtype": {"type": "DT_FLOAT"}}}, {"name": "concat_102/axis", "op": "Const", "attr": {"dtype": {"type": "DT_INT32"}, "value": {"tensor": {"dtype": "DT_INT32", "tensorShape": {}}}}}, {"name": "ExpandDims_308", "op": "Const", "attr": {"dtype": {"type": "DT_FLOAT"}, "value": {"tensor": {"dtype": "DT_FLOAT", "tensorShape": {"dim": [{"size": "1"}, {"size": "2048"}, {"size": "1"}, {"size": "1"}]}}}}}, {"name": "split_206", "op": "Const", "attr": {"value": {"tensor": {"dtype": "DT_FLOAT", "tensorShape": {"dim": [{"size": "1"}, {"size": "1"}, {"size": "2048"}, {"size": "2048"}]}}}, "dtype": {"type": "DT_FLOAT"}}}, {"name": "ExpandDims_311", "op": "Const", "attr": {"value": {"tensor": {"dtype": "DT_FLOAT", "tensorShape": {"dim": [{"size": "1"}, {"size": "2048"}, {"size": "1"}, {"size": "1"}]}}}, "dtype": {"type": "DT_FLOAT"}}}, {"name": "ConstantFolding/split_198-folded-0", "op": "Const", "attr": {"dtype": {"type": "DT_FLOAT"}, "value": {"tensor": {"dtype": "DT_FLOAT", "tensorShape": {"dim": [{"size": "3"}, {"size": "3"}, {"size": "64"}, {"size": "64"}]}}}}}, {"name": "ConstantFolding/split_198-folded-1", "op": "Const", "attr": {"value": {"tensor": {"dtype": "DT_FLOAT", "tensorShape": {"dim": [{"size": "3"}, {"size": "3"}, {"size": "64"}, {"size": "64"}]}}}, "dtype": {"type": "DT_FLOAT"}}}, {"name": "ConstantFolding/split_198-folded-2", "op": "Const", "attr": {"dtype": {"type": "DT_FLOAT"}, "value": {"tensor": {"dtype": "DT_FLOAT", "tensorShape": {"dim": [{"size": "3"}, {"size": "3"}, {"size": "64"}, {"size": "64"}]}}}}}, {"name": "ConstantFolding/split_198-folded-3", "op": "Const", "attr": {"dtype": {"type": "DT_FLOAT"}, "value": {"tensor": {"dtype": "DT_FLOAT", "tensorShape": {"dim": [{"size": "3"}, {"size": "3"}, {"size": "64"}, {"size": "64"}]}}}}}, {"name": "ConstantFolding/split_198-folded-4", "op": "Const", "attr": {"dtype": {"type": "DT_FLOAT"}, "value": {"tensor": {"dtype": "DT_FLOAT", "tensorShape": {"dim": [{"size": "3"}, {"size": "3"}, {"size": "64"}, {"size": "64"}]}}}}}, {"name": "ConstantFolding/split_198-folded-5", "op": "Const", "attr": {"dtype": {"type": "DT_FLOAT"}, "value": {"tensor": {"dtype": "DT_FLOAT", "tensorShape": {"dim": [{"size": "3"}, {"size": "3"}, {"size": "64"}, {"size": "64"}]}}}}}, {"name": "ConstantFolding/split_198-folded-6", "op": "Const", "attr": {"value": {"tensor": {"dtype": "DT_FLOAT", "tensorShape": {"dim": [{"size": "3"}, {"size": "3"}, {"size": "64"}, {"size": "64"}]}}}, "dtype": {"type": "DT_FLOAT"}}}, {"name": "ConstantFolding/split_198-folded-7", "op": "Const", "attr": {"value": {"tensor": {"dtype": "DT_FLOAT", "tensorShape": {"dim": [{"size": "3"}, {"size": "3"}, {"size": "64"}, {"size": "64"}]}}}, "dtype": {"type": "DT_FLOAT"}}}, {"name": "ConstantFolding/split_198-folded-8", "op": "Const", "attr": {"value": {"tensor": {"dtype": "DT_FLOAT", "tensorShape": {"dim": [{"size": "3"}, {"size": "3"}, {"size": "64"}, {"size": "64"}]}}}, "dtype": {"type": "DT_FLOAT"}}}, {"name": "ConstantFolding/split_198-folded-9", "op": "Const", "attr": {"value": {"tensor": {"dtype": "DT_FLOAT", "tensorShape": {"dim": [{"size": "3"}, {"size": "3"}, {"size": "64"}, {"size": "64"}]}}}, "dtype": {"type": "DT_FLOAT"}}}, {"name": "ConstantFolding/split_198-folded-10", "op": "Const", "attr": {"dtype": {"type": "DT_FLOAT"}, "value": {"tensor": {"dtype": "DT_FLOAT", "tensorShape": {"dim": [{"size": "3"}, {"size": "3"}, {"size": "64"}, {"size": "64"}]}}}}}, {"name": "ConstantFolding/split_198-folded-11", "op": "Const", "attr": {"dtype": {"type": "DT_FLOAT"}, "value": {"tensor": {"dtype": "DT_FLOAT", "tensorShape": {"dim": [{"size": "3"}, {"size": "3"}, {"size": "64"}, {"size": "64"}]}}}}}, {"name": "ConstantFolding/split_198-folded-12", "op": "Const", "attr": {"value": {"tensor": {"dtype": "DT_FLOAT", "tensorShape": {"dim": [{"size": "3"}, {"size": "3"}, {"size": "64"}, {"size": "64"}]}}}, "dtype": {"type": "DT_FLOAT"}}}, {"name": "ConstantFolding/split_198-folded-13", "op": "Const", "attr": {"value": {"tensor": {"dtype": "DT_FLOAT", "tensorShape": {"dim": [{"size": "3"}, {"size": "3"}, {"size": "64"}, {"size": "64"}]}}}, "dtype": {"type": "DT_FLOAT"}}}, {"name": "ConstantFolding/split_198-folded-14", "op": "Const", "attr": {"value": {"tensor": {"dtype": "DT_FLOAT", "tensorShape": {"dim": [{"size": "3"}, {"size": "3"}, {"size": "64"}, {"size": "64"}]}}}, "dtype": {"type": "DT_FLOAT"}}}, {"name": "ConstantFolding/split_198-folded-15", "op": "Const", "attr": {"dtype": {"type": "DT_FLOAT"}, "value": {"tensor": {"dtype": "DT_FLOAT", "tensorShape": {"dim": [{"size": "3"}, {"size": "3"}, {"size": "64"}, {"size": "64"}]}}}}}, {"name": "ConstantFolding/split_198-folded-16", "op": "Const", "attr": {"value": {"tensor": {"dtype": "DT_FLOAT", "tensorShape": {"dim": [{"size": "3"}, {"size": "3"}, {"size": "64"}, {"size": "64"}]}}}, "dtype": {"type": "DT_FLOAT"}}}, {"name": "ConstantFolding/split_198-folded-17", "op": "Const", "attr": {"dtype": {"type": "DT_FLOAT"}, "value": {"tensor": {"dtype": "DT_FLOAT", "tensorShape": {"dim": [{"size": "3"}, {"size": "3"}, {"size": "64"}, {"size": "64"}]}}}}}, {"name": "ConstantFolding/split_198-folded-18", "op": "Const", "attr": {"value": {"tensor": {"dtype": "DT_FLOAT", "tensorShape": {"dim": [{"size": "3"}, {"size": "3"}, {"size": "64"}, {"size": "64"}]}}}, "dtype": {"type": "DT_FLOAT"}}}, {"name": "ConstantFolding/split_198-folded-19", "op": "Const", "attr": {"value": {"tensor": {"dtype": "DT_FLOAT", "tensorShape": {"dim": [{"size": "3"}, {"size": "3"}, {"size": "64"}, {"size": "64"}]}}}, "dtype": {"type": "DT_FLOAT"}}}, {"name": "ConstantFolding/split_198-folded-20", "op": "Const", "attr": {"value": {"tensor": {"dtype": "DT_FLOAT", "tensorShape": {"dim": [{"size": "3"}, {"size": "3"}, {"size": "64"}, {"size": "64"}]}}}, "dtype": {"type": "DT_FLOAT"}}}, {"name": "ConstantFolding/split_198-folded-21", "op": "Const", "attr": {"value": {"tensor": {"dtype": "DT_FLOAT", "tensorShape": {"dim": [{"size": "3"}, {"size": "3"}, {"size": "64"}, {"size": "64"}]}}}, "dtype": {"type": "DT_FLOAT"}}}, {"name": "ConstantFolding/split_198-folded-22", "op": "Const", "attr": {"dtype": {"type": "DT_FLOAT"}, "value": {"tensor": {"dtype": "DT_FLOAT", "tensorShape": {"dim": [{"size": "3"}, {"size": "3"}, {"size": "64"}, {"size": "64"}]}}}}}, {"name": "ConstantFolding/split_198-folded-23", "op": "Const", "attr": {"value": {"tensor": {"dtype": "DT_FLOAT", "tensorShape": {"dim": [{"size": "3"}, {"size": "3"}, {"size": "64"}, {"size": "64"}]}}}, "dtype": {"type": "DT_FLOAT"}}}, {"name": "ConstantFolding/split_198-folded-24", "op": "Const", "attr": {"value": {"tensor": {"dtype": "DT_FLOAT", "tensorShape": {"dim": [{"size": "3"}, {"size": "3"}, {"size": "64"}, {"size": "64"}]}}}, "dtype": {"type": "DT_FLOAT"}}}, {"name": "ConstantFolding/split_198-folded-25", "op": "Const", "attr": {"value": {"tensor": {"dtype": "DT_FLOAT", "tensorShape": {"dim": [{"size": "3"}, {"size": "3"}, {"size": "64"}, {"size": "64"}]}}}, "dtype": {"type": "DT_FLOAT"}}}, {"name": "ConstantFolding/split_198-folded-26", "op": "Const", "attr": {"dtype": {"type": "DT_FLOAT"}, "value": {"tensor": {"dtype": "DT_FLOAT", "tensorShape": {"dim": [{"size": "3"}, {"size": "3"}, {"size": "64"}, {"size": "64"}]}}}}}, {"name": "ConstantFolding/split_198-folded-27", "op": "Const", "attr": {"value": {"tensor": {"dtype": "DT_FLOAT", "tensorShape": {"dim": [{"size": "3"}, {"size": "3"}, {"size": "64"}, {"size": "64"}]}}}, "dtype": {"type": "DT_FLOAT"}}}, {"name": "ConstantFolding/split_198-folded-28", "op": "Const", "attr": {"value": {"tensor": {"dtype": "DT_FLOAT", "tensorShape": {"dim": [{"size": "3"}, {"size": "3"}, {"size": "64"}, {"size": "64"}]}}}, "dtype": {"type": "DT_FLOAT"}}}, {"name": "ConstantFolding/split_198-folded-29", "op": "Const", "attr": {"value": {"tensor": {"dtype": "DT_FLOAT", "tensorShape": {"dim": [{"size": "3"}, {"size": "3"}, {"size": "64"}, {"size": "64"}]}}}, "dtype": {"type": "DT_FLOAT"}}}, {"name": "ConstantFolding/split_198-folded-30", "op": "Const", "attr": {"value": {"tensor": {"dtype": "DT_FLOAT", "tensorShape": {"dim": [{"size": "3"}, {"size": "3"}, {"size": "64"}, {"size": "64"}]}}}, "dtype": {"type": "DT_FLOAT"}}}, {"name": "split_199/split_dim", "op": "Const", "attr": {"value": {"tensor": {"dtype": "DT_INT32", "tensorShape": {}}}, "dtype": {"type": "DT_INT32"}}}, {"name": "split_196", "op": "Const", "attr": {"value": {"tensor": {"dtype": "DT_FLOAT", "tensorShape": {"dim": [{"size": "1"}, {"size": "1"}, {"size": "2048"}, {"size": "2048"}]}}}, "dtype": {"type": "DT_FLOAT"}}}, {"name": "ExpandDims_296", "op": "Const", "attr": {"value": {"tensor": {"dtype": "DT_FLOAT", "tensorShape": {"dim": [{"size": "1"}, {"size": "2048"}, {"size": "1"}, {"size": "1"}]}}}, "dtype": {"type": "DT_FLOAT"}}}, {"name": "Const_230", "op": "Const", "attr": {"value": {"tensor": {"dtype": "DT_INT32", "tensorShape": {"dim": [{"size": "4"}, {"size": "2"}]}}}, "dtype": {"type": "DT_INT32"}}}, {"name": "ConstantFolding/split_198-folded-31", "op": "Const", "attr": {"value": {"tensor": {"dtype": "DT_FLOAT", "tensorShape": {"dim": [{"size": "3"}, {"size": "3"}, {"size": "64"}, {"size": "64"}]}}}, "dtype": {"type": "DT_FLOAT"}}}, {"name": "concat_99/axis", "op": "Const", "attr": {"value": {"tensor": {"dtype": "DT_INT32", "tensorShape": {}}}, "dtype": {"type": "DT_INT32"}}}, {"name": "ExpandDims_299", "op": "Const", "attr": {"dtype": {"type": "DT_FLOAT"}, "value": {"tensor": {"dtype": "DT_FLOAT", "tensorShape": {"dim": [{"size": "1"}, {"size": "2048"}, {"size": "1"}, {"size": "1"}]}}}}}, {"name": "split_200", "op": "Const", "attr": {"value": {"tensor": {"dtype": "DT_FLOAT", "tensorShape": {"dim": [{"size": "1"}, {"size": "1"}, {"size": "2048"}, {"size": "2048"}]}}}, "dtype": {"type": "DT_FLOAT"}}}, {"name": "ExpandDims_302", "op": "Const", "attr": {"value": {"tensor": {"dtype": "DT_FLOAT", "tensorShape": {"dim": [{"size": "1"}, {"size": "2048"}, {"size": "1"}, {"size": "1"}]}}}, "dtype": {"type": "DT_FLOAT"}}}, {"name": "ConstantFolding/split_190-folded-0", "op": "Const", "attr": {"value": {"tensor": {"dtype": "DT_FLOAT", "tensorShape": {"dim": [{"size": "3"}, {"size": "3"}, {"size": "64"}, {"size": "64"}]}}}, "dtype": {"type": "DT_FLOAT"}}}, {"name": "ConstantFolding/split_190-folded-1", "op": "Const", "attr": {"dtype": {"type": "DT_FLOAT"}, "value": {"tensor": {"dtype": "DT_FLOAT", "tensorShape": {"dim": [{"size": "3"}, {"size": "3"}, {"size": "64"}, {"size": "64"}]}}}}}, {"name": "ConstantFolding/split_190-folded-2", "op": "Const", "attr": {"dtype": {"type": "DT_FLOAT"}, "value": {"tensor": {"dtype": "DT_FLOAT", "tensorShape": {"dim": [{"size": "3"}, {"size": "3"}, {"size": "64"}, {"size": "64"}]}}}}}, {"name": "ConstantFolding/split_190-folded-3", "op": "Const", "attr": {"dtype": {"type": "DT_FLOAT"}, "value": {"tensor": {"dtype": "DT_FLOAT", "tensorShape": {"dim": [{"size": "3"}, {"size": "3"}, {"size": "64"}, {"size": "64"}]}}}}}, {"name": "ConstantFolding/split_190-folded-4", "op": "Const", "attr": {"dtype": {"type": "DT_FLOAT"}, "value": {"tensor": {"dtype": "DT_FLOAT", "tensorShape": {"dim": [{"size": "3"}, {"size": "3"}, {"size": "64"}, {"size": "64"}]}}}}}, {"name": "ConstantFolding/split_190-folded-5", "op": "Const", "attr": {"value": {"tensor": {"dtype": "DT_FLOAT", "tensorShape": {"dim": [{"size": "3"}, {"size": "3"}, {"size": "64"}, {"size": "64"}]}}}, "dtype": {"type": "DT_FLOAT"}}}, {"name": "ConstantFolding/split_190-folded-6", "op": "Const", "attr": {"dtype": {"type": "DT_FLOAT"}, "value": {"tensor": {"dtype": "DT_FLOAT", "tensorShape": {"dim": [{"size": "3"}, {"size": "3"}, {"size": "64"}, {"size": "64"}]}}}}}, {"name": "ConstantFolding/split_190-folded-7", "op": "Const", "attr": {"dtype": {"type": "DT_FLOAT"}, "value": {"tensor": {"dtype": "DT_FLOAT", "tensorShape": {"dim": [{"size": "3"}, {"size": "3"}, {"size": "64"}, {"size": "64"}]}}}}}, {"name": "ConstantFolding/split_190-folded-8", "op": "Const", "attr": {"value": {"tensor": {"dtype": "DT_FLOAT", "tensorShape": {"dim": [{"size": "3"}, {"size": "3"}, {"size": "64"}, {"size": "64"}]}}}, "dtype": {"type": "DT_FLOAT"}}}, {"name": "ConstantFolding/split_190-folded-9", "op": "Const", "attr": {"dtype": {"type": "DT_FLOAT"}, "value": {"tensor": {"dtype": "DT_FLOAT", "tensorShape": {"dim": [{"size": "3"}, {"size": "3"}, {"size": "64"}, {"size": "64"}]}}}}}, {"name": "ConstantFolding/split_190-folded-10", "op": "Const", "attr": {"dtype": {"type": "DT_FLOAT"}, "value": {"tensor": {"dtype": "DT_FLOAT", "tensorShape": {"dim": [{"size": "3"}, {"size": "3"}, {"size": "64"}, {"size": "64"}]}}}}}, {"name": "ConstantFolding/split_190-folded-11", "op": "Const", "attr": {"value": {"tensor": {"dtype": "DT_FLOAT", "tensorShape": {"dim": [{"size": "3"}, {"size": "3"}, {"size": "64"}, {"size": "64"}]}}}, "dtype": {"type": "DT_FLOAT"}}}, {"name": "ConstantFolding/split_190-folded-12", "op": "Const", "attr": {"dtype": {"type": "DT_FLOAT"}, "value": {"tensor": {"dtype": "DT_FLOAT", "tensorShape": {"dim": [{"size": "3"}, {"size": "3"}, {"size": "64"}, {"size": "64"}]}}}}}, {"name": "ConstantFolding/split_190-folded-13", "op": "Const", "attr": {"value": {"tensor": {"dtype": "DT_FLOAT", "tensorShape": {"dim": [{"size": "3"}, {"size": "3"}, {"size": "64"}, {"size": "64"}]}}}, "dtype": {"type": "DT_FLOAT"}}}, {"name": "ConstantFolding/split_190-folded-14", "op": "Const", "attr": {"value": {"tensor": {"dtype": "DT_FLOAT", "tensorShape": {"dim": [{"size": "3"}, {"size": "3"}, {"size": "64"}, {"size": "64"}]}}}, "dtype": {"type": "DT_FLOAT"}}}, {"name": "ConstantFolding/split_190-folded-15", "op": "Const", "attr": {"value": {"tensor": {"dtype": "DT_FLOAT", "tensorShape": {"dim": [{"size": "3"}, {"size": "3"}, {"size": "64"}, {"size": "64"}]}}}, "dtype": {"type": "DT_FLOAT"}}}, {"name": "ConstantFolding/split_190-folded-16", "op": "Const", "attr": {"dtype": {"type": "DT_FLOAT"}, "value": {"tensor": {"dtype": "DT_FLOAT", "tensorShape": {"dim": [{"size": "3"}, {"size": "3"}, {"size": "64"}, {"size": "64"}]}}}}}, {"name": "ConstantFolding/split_190-folded-17", "op": "Const", "attr": {"value": {"tensor": {"dtype": "DT_FLOAT", "tensorShape": {"dim": [{"size": "3"}, {"size": "3"}, {"size": "64"}, {"size": "64"}]}}}, "dtype": {"type": "DT_FLOAT"}}}, {"name": "ConstantFolding/split_190-folded-18", "op": "Const", "attr": {"dtype": {"type": "DT_FLOAT"}, "value": {"tensor": {"dtype": "DT_FLOAT", "tensorShape": {"dim": [{"size": "3"}, {"size": "3"}, {"size": "64"}, {"size": "64"}]}}}}}, {"name": "ConstantFolding/split_190-folded-19", "op": "Const", "attr": {"dtype": {"type": "DT_FLOAT"}, "value": {"tensor": {"dtype": "DT_FLOAT", "tensorShape": {"dim": [{"size": "3"}, {"size": "3"}, {"size": "64"}, {"size": "64"}]}}}}}, {"name": "ConstantFolding/split_190-folded-20", "op": "Const", "attr": {"value": {"tensor": {"dtype": "DT_FLOAT", "tensorShape": {"dim": [{"size": "3"}, {"size": "3"}, {"size": "64"}, {"size": "64"}]}}}, "dtype": {"type": "DT_FLOAT"}}}, {"name": "ConstantFolding/split_190-folded-21", "op": "Const", "attr": {"value": {"tensor": {"dtype": "DT_FLOAT", "tensorShape": {"dim": [{"size": "3"}, {"size": "3"}, {"size": "64"}, {"size": "64"}]}}}, "dtype": {"type": "DT_FLOAT"}}}, {"name": "ConstantFolding/split_190-folded-22", "op": "Const", "attr": {"value": {"tensor": {"dtype": "DT_FLOAT", "tensorShape": {"dim": [{"size": "3"}, {"size": "3"}, {"size": "64"}, {"size": "64"}]}}}, "dtype": {"type": "DT_FLOAT"}}}, {"name": "ConstantFolding/split_190-folded-23", "op": "Const", "attr": {"value": {"tensor": {"dtype": "DT_FLOAT", "tensorShape": {"dim": [{"size": "3"}, {"size": "3"}, {"size": "64"}, {"size": "64"}]}}}, "dtype": {"type": "DT_FLOAT"}}}, {"name": "ConstantFolding/split_190-folded-24", "op": "Const", "attr": {"value": {"tensor": {"dtype": "DT_FLOAT", "tensorShape": {"dim": [{"size": "3"}, {"size": "3"}, {"size": "64"}, {"size": "64"}]}}}, "dtype": {"type": "DT_FLOAT"}}}, {"name": "ConstantFolding/split_190-folded-25", "op": "Const", "attr": {"dtype": {"type": "DT_FLOAT"}, "value": {"tensor": {"dtype": "DT_FLOAT", "tensorShape": {"dim": [{"size": "3"}, {"size": "3"}, {"size": "64"}, {"size": "64"}]}}}}}, {"name": "ConstantFolding/split_190-folded-26", "op": "Const", "attr": {"dtype": {"type": "DT_FLOAT"}, "value": {"tensor": {"dtype": "DT_FLOAT", "tensorShape": {"dim": [{"size": "3"}, {"size": "3"}, {"size": "64"}, {"size": "64"}]}}}}}, {"name": "ConstantFolding/split_190-folded-27", "op": "Const", "attr": {"value": {"tensor": {"dtype": "DT_FLOAT", "tensorShape": {"dim": [{"size": "3"}, {"size": "3"}, {"size": "64"}, {"size": "64"}]}}}, "dtype": {"type": "DT_FLOAT"}}}, {"name": "ConstantFolding/split_190-folded-28", "op": "Const", "attr": {"value": {"tensor": {"dtype": "DT_FLOAT", "tensorShape": {"dim": [{"size": "3"}, {"size": "3"}, {"size": "64"}, {"size": "64"}]}}}, "dtype": {"type": "DT_FLOAT"}}}, {"name": "ConstantFolding/split_190-folded-29", "op": "Const", "attr": {"dtype": {"type": "DT_FLOAT"}, "value": {"tensor": {"dtype": "DT_FLOAT", "tensorShape": {"dim": [{"size": "3"}, {"size": "3"}, {"size": "64"}, {"size": "64"}]}}}}}, {"name": "ConstantFolding/split_190-folded-30", "op": "Const", "attr": {"value": {"tensor": {"dtype": "DT_FLOAT", "tensorShape": {"dim": [{"size": "3"}, {"size": "3"}, {"size": "64"}, {"size": "64"}]}}}, "dtype": {"type": "DT_FLOAT"}}}, {"name": "split_191/split_dim", "op": "Const", "attr": {"value": {"tensor": {"dtype": "DT_INT32", "tensorShape": {}}}, "dtype": {"type": "DT_INT32"}}}, {"name": "split_188", "op": "Const", "attr": {"dtype": {"type": "DT_FLOAT"}, "value": {"tensor": {"dtype": "DT_FLOAT", "tensorShape": {"dim": [{"size": "1"}, {"size": "1"}, {"size": "1024"}, {"size": "2048"}]}}}}}, {"name": "ExpandDims_284", "op": "Const", "attr": {"value": {"tensor": {"dtype": "DT_FLOAT", "tensorShape": {"dim": [{"size": "1"}, {"size": "2048"}, {"size": "1"}, {"size": "1"}]}}}, "dtype": {"type": "DT_FLOAT"}}}, {"name": "Const_221", "op": "Const", "attr": {"value": {"tensor": {"dtype": "DT_INT32", "tensorShape": {"dim": [{"size": "4"}, {"size": "2"}]}}}, "dtype": {"type": "DT_INT32"}}}, {"name": "ConstantFolding/split_190-folded-31", "op": "Const", "attr": {"dtype": {"type": "DT_FLOAT"}, "value": {"tensor": {"dtype": "DT_FLOAT", "tensorShape": {"dim": [{"size": "3"}, {"size": "3"}, {"size": "64"}, {"size": "64"}]}}}}}, {"name": "concat_95/axis", "op": "Const", "attr": {"dtype": {"type": "DT_INT32"}, "value": {"tensor": {"dtype": "DT_INT32", "tensorShape": {}}}}}, {"name": "ExpandDims_287", "op": "Const", "attr": {"dtype": {"type": "DT_FLOAT"}, "value": {"tensor": {"dtype": "DT_FLOAT", "tensorShape": {"dim": [{"size": "1"}, {"size": "2048"}, {"size": "1"}, {"size": "1"}]}}}}}, {"name": "split_192", "op": "Const", "attr": {"value": {"tensor": {"dtype": "DT_FLOAT", "tensorShape": {"dim": [{"size": "1"}, {"size": "1"}, {"size": "2048"}, {"size": "2048"}]}}}, "dtype": {"type": "DT_FLOAT"}}}, {"name": "ExpandDims_290", "op": "Const", "attr": {"dtype": {"type": "DT_FLOAT"}, "value": {"tensor": {"dtype": "DT_FLOAT", "tensorShape": {"dim": [{"size": "1"}, {"size": "2048"}, {"size": "1"}, {"size": "1"}]}}}}}, {"name": "split_194", "op": "Const", "attr": {"value": {"tensor": {"dtype": "DT_FLOAT", "tensorShape": {"dim": [{"size": "1"}, {"size": "1"}, {"size": "1024"}, {"size": "2048"}]}}}, "dtype": {"type": "DT_FLOAT"}}}, {"name": "ExpandDims_293", "op": "Const", "attr": {"dtype": {"type": "DT_FLOAT"}, "value": {"tensor": {"dtype": "DT_FLOAT", "tensorShape": {"dim": [{"size": "1"}, {"size": "2048"}, {"size": "1"}, {"size": "1"}]}}}}}, {"name": "Const_251", "op": "Const", "attr": {"value": {"tensor": {"dtype": "DT_INT32", "tensorShape": {"dim": [{"size": "4"}, {"size": "2"}]}}}, "dtype": {"type": "DT_INT32"}}}, {"name": "split_214", "op": "Const", "attr": {"dtype": {"type": "DT_FLOAT"}, "value": {"tensor": {"dtype": "DT_FLOAT", "tensorShape": {"dim": [{"size": "3"}, {"size": "3"}, {"size": "2048"}, {"size": "256"}]}}}}}, {"name": "LogicalAnd", "op": "Const", "attr": {"value": {"tensor": {"dtype": "DT_BOOL", "tensorShape": {}}}, "dtype": {"type": "DT_BOOL"}}}, {"name": "1393", "op": "Const", "attr": {"value": {"tensor": {"dtype": "DT_FLOAT", "tensorShape": {"dim": [{"size": "4"}]}}}, "dtype": {"type": "DT_FLOAT"}}}, {"name": "Const_260", "op": "Const", "attr": {"value": {"tensor": {"dtype": "DT_INT32", "tensorShape": {"dim": [{"size": "4"}, {"size": "2"}]}}}, "dtype": {"type": "DT_INT32"}}}, {"name": "split_220", "op": "Const", "attr": {"value": {"tensor": {"dtype": "DT_FLOAT", "tensorShape": {"dim": [{"size": "3"}, {"size": "3"}, {"size": "256"}, {"size": "256"}]}}}, "dtype": {"type": "DT_FLOAT"}}}, {"name": "ExpandDims_320", "op": "Const", "attr": {"value": {"tensor": {"dtype": "DT_FLOAT", "tensorShape": {"dim": [{"size": "1"}, {"size": "256"}, {"size": "1"}, {"size": "1"}]}}}, "dtype": {"type": "DT_FLOAT"}}}, {"name": "Const_263", "op": "Const", "attr": {"value": {"tensor": {"dtype": "DT_INT32", "tensorShape": {"dim": [{"size": "4"}, {"size": "2"}]}}}, "dtype": {"type": "DT_INT32"}}}, {"name": "split_222", "op": "Const", "attr": {"value": {"tensor": {"dtype": "DT_FLOAT", "tensorShape": {"dim": [{"size": "3"}, {"size": "3"}, {"size": "256"}, {"size": "256"}]}}}, "dtype": {"type": "DT_FLOAT"}}}, {"name": "ExpandDims_323", "op": "Const", "attr": {"value": {"tensor": {"dtype": "DT_FLOAT", "tensorShape": {"dim": [{"size": "1"}, {"size": "256"}, {"size": "1"}, {"size": "1"}]}}}, "dtype": {"type": "DT_FLOAT"}}}, {"name": "ConstantFolding/split_184-folded-0", "op": "Const", "attr": {"dtype": {"type": "DT_FLOAT"}, "value": {"tensor": {"dtype": "DT_FLOAT", "tensorShape": {"dim": [{"size": "3"}, {"size": "3"}, {"size": "32"}, {"size": "32"}]}}}}}, {"name": "ConstantFolding/split_184-folded-1", "op": "Const", "attr": {"dtype": {"type": "DT_FLOAT"}, "value": {"tensor": {"dtype": "DT_FLOAT", "tensorShape": {"dim": [{"size": "3"}, {"size": "3"}, {"size": "32"}, {"size": "32"}]}}}}}, {"name": "ConstantFolding/split_184-folded-2", "op": "Const", "attr": {"dtype": {"type": "DT_FLOAT"}, "value": {"tensor": {"dtype": "DT_FLOAT", "tensorShape": {"dim": [{"size": "3"}, {"size": "3"}, {"size": "32"}, {"size": "32"}]}}}}}, {"name": "ConstantFolding/split_184-folded-3", "op": "Const", "attr": {"value": {"tensor": {"dtype": "DT_FLOAT", "tensorShape": {"dim": [{"size": "3"}, {"size": "3"}, {"size": "32"}, {"size": "32"}]}}}, "dtype": {"type": "DT_FLOAT"}}}, {"name": "ConstantFolding/split_184-folded-4", "op": "Const", "attr": {"value": {"tensor": {"dtype": "DT_FLOAT", "tensorShape": {"dim": [{"size": "3"}, {"size": "3"}, {"size": "32"}, {"size": "32"}]}}}, "dtype": {"type": "DT_FLOAT"}}}, {"name": "ConstantFolding/split_184-folded-5", "op": "Const", "attr": {"value": {"tensor": {"dtype": "DT_FLOAT", "tensorShape": {"dim": [{"size": "3"}, {"size": "3"}, {"size": "32"}, {"size": "32"}]}}}, "dtype": {"type": "DT_FLOAT"}}}, {"name": "ConstantFolding/split_184-folded-6", "op": "Const", "attr": {"dtype": {"type": "DT_FLOAT"}, "value": {"tensor": {"dtype": "DT_FLOAT", "tensorShape": {"dim": [{"size": "3"}, {"size": "3"}, {"size": "32"}, {"size": "32"}]}}}}}, {"name": "ConstantFolding/split_184-folded-7", "op": "Const", "attr": {"value": {"tensor": {"dtype": "DT_FLOAT", "tensorShape": {"dim": [{"size": "3"}, {"size": "3"}, {"size": "32"}, {"size": "32"}]}}}, "dtype": {"type": "DT_FLOAT"}}}, {"name": "ConstantFolding/split_184-folded-8", "op": "Const", "attr": {"dtype": {"type": "DT_FLOAT"}, "value": {"tensor": {"dtype": "DT_FLOAT", "tensorShape": {"dim": [{"size": "3"}, {"size": "3"}, {"size": "32"}, {"size": "32"}]}}}}}, {"name": "ConstantFolding/split_184-folded-9", "op": "Const", "attr": {"value": {"tensor": {"dtype": "DT_FLOAT", "tensorShape": {"dim": [{"size": "3"}, {"size": "3"}, {"size": "32"}, {"size": "32"}]}}}, "dtype": {"type": "DT_FLOAT"}}}, {"name": "ConstantFolding/split_184-folded-10", "op": "Const", "attr": {"value": {"tensor": {"dtype": "DT_FLOAT", "tensorShape": {"dim": [{"size": "3"}, {"size": "3"}, {"size": "32"}, {"size": "32"}]}}}, "dtype": {"type": "DT_FLOAT"}}}, {"name": "ConstantFolding/split_184-folded-11", "op": "Const", "attr": {"dtype": {"type": "DT_FLOAT"}, "value": {"tensor": {"dtype": "DT_FLOAT", "tensorShape": {"dim": [{"size": "3"}, {"size": "3"}, {"size": "32"}, {"size": "32"}]}}}}}, {"name": "ConstantFolding/split_184-folded-12", "op": "Const", "attr": {"value": {"tensor": {"dtype": "DT_FLOAT", "tensorShape": {"dim": [{"size": "3"}, {"size": "3"}, {"size": "32"}, {"size": "32"}]}}}, "dtype": {"type": "DT_FLOAT"}}}, {"name": "ConstantFolding/split_184-folded-13", "op": "Const", "attr": {"value": {"tensor": {"dtype": "DT_FLOAT", "tensorShape": {"dim": [{"size": "3"}, {"size": "3"}, {"size": "32"}, {"size": "32"}]}}}, "dtype": {"type": "DT_FLOAT"}}}, {"name": "ConstantFolding/split_184-folded-14", "op": "Const", "attr": {"value": {"tensor": {"dtype": "DT_FLOAT", "tensorShape": {"dim": [{"size": "3"}, {"size": "3"}, {"size": "32"}, {"size": "32"}]}}}, "dtype": {"type": "DT_FLOAT"}}}, {"name": "ConstantFolding/split_184-folded-15", "op": "Const", "attr": {"value": {"tensor": {"dtype": "DT_FLOAT", "tensorShape": {"dim": [{"size": "3"}, {"size": "3"}, {"size": "32"}, {"size": "32"}]}}}, "dtype": {"type": "DT_FLOAT"}}}, {"name": "ConstantFolding/split_184-folded-16", "op": "Const", "attr": {"dtype": {"type": "DT_FLOAT"}, "value": {"tensor": {"dtype": "DT_FLOAT", "tensorShape": {"dim": [{"size": "3"}, {"size": "3"}, {"size": "32"}, {"size": "32"}]}}}}}, {"name": "ConstantFolding/split_184-folded-17", "op": "Const", "attr": {"value": {"tensor": {"dtype": "DT_FLOAT", "tensorShape": {"dim": [{"size": "3"}, {"size": "3"}, {"size": "32"}, {"size": "32"}]}}}, "dtype": {"type": "DT_FLOAT"}}}, {"name": "ConstantFolding/split_184-folded-18", "op": "Const", "attr": {"dtype": {"type": "DT_FLOAT"}, "value": {"tensor": {"dtype": "DT_FLOAT", "tensorShape": {"dim": [{"size": "3"}, {"size": "3"}, {"size": "32"}, {"size": "32"}]}}}}}, {"name": "ConstantFolding/split_184-folded-19", "op": "Const", "attr": {"dtype": {"type": "DT_FLOAT"}, "value": {"tensor": {"dtype": "DT_FLOAT", "tensorShape": {"dim": [{"size": "3"}, {"size": "3"}, {"size": "32"}, {"size": "32"}]}}}}}, {"name": "ConstantFolding/split_184-folded-20", "op": "Const", "attr": {"value": {"tensor": {"dtype": "DT_FLOAT", "tensorShape": {"dim": [{"size": "3"}, {"size": "3"}, {"size": "32"}, {"size": "32"}]}}}, "dtype": {"type": "DT_FLOAT"}}}, {"name": "ConstantFolding/split_184-folded-21", "op": "Const", "attr": {"dtype": {"type": "DT_FLOAT"}, "value": {"tensor": {"dtype": "DT_FLOAT", "tensorShape": {"dim": [{"size": "3"}, {"size": "3"}, {"size": "32"}, {"size": "32"}]}}}}}, {"name": "ConstantFolding/split_184-folded-22", "op": "Const", "attr": {"value": {"tensor": {"dtype": "DT_FLOAT", "tensorShape": {"dim": [{"size": "3"}, {"size": "3"}, {"size": "32"}, {"size": "32"}]}}}, "dtype": {"type": "DT_FLOAT"}}}, {"name": "ConstantFolding/split_184-folded-23", "op": "Const", "attr": {"dtype": {"type": "DT_FLOAT"}, "value": {"tensor": {"dtype": "DT_FLOAT", "tensorShape": {"dim": [{"size": "3"}, {"size": "3"}, {"size": "32"}, {"size": "32"}]}}}}}, {"name": "ConstantFolding/split_184-folded-24", "op": "Const", "attr": {"dtype": {"type": "DT_FLOAT"}, "value": {"tensor": {"dtype": "DT_FLOAT", "tensorShape": {"dim": [{"size": "3"}, {"size": "3"}, {"size": "32"}, {"size": "32"}]}}}}}, {"name": "ConstantFolding/split_184-folded-25", "op": "Const", "attr": {"value": {"tensor": {"dtype": "DT_FLOAT", "tensorShape": {"dim": [{"size": "3"}, {"size": "3"}, {"size": "32"}, {"size": "32"}]}}}, "dtype": {"type": "DT_FLOAT"}}}, {"name": "ConstantFolding/split_184-folded-26", "op": "Const", "attr": {"dtype": {"type": "DT_FLOAT"}, "value": {"tensor": {"dtype": "DT_FLOAT", "tensorShape": {"dim": [{"size": "3"}, {"size": "3"}, {"size": "32"}, {"size": "32"}]}}}}}, {"name": "ConstantFolding/split_184-folded-27", "op": "Const", "attr": {"value": {"tensor": {"dtype": "DT_FLOAT", "tensorShape": {"dim": [{"size": "3"}, {"size": "3"}, {"size": "32"}, {"size": "32"}]}}}, "dtype": {"type": "DT_FLOAT"}}}, {"name": "ConstantFolding/split_184-folded-28", "op": "Const", "attr": {"dtype": {"type": "DT_FLOAT"}, "value": {"tensor": {"dtype": "DT_FLOAT", "tensorShape": {"dim": [{"size": "3"}, {"size": "3"}, {"size": "32"}, {"size": "32"}]}}}}}, {"name": "ConstantFolding/split_184-folded-29", "op": "Const", "attr": {"value": {"tensor": {"dtype": "DT_FLOAT", "tensorShape": {"dim": [{"size": "3"}, {"size": "3"}, {"size": "32"}, {"size": "32"}]}}}, "dtype": {"type": "DT_FLOAT"}}}, {"name": "ConstantFolding/split_184-folded-30", "op": "Const", "attr": {"dtype": {"type": "DT_FLOAT"}, "value": {"tensor": {"dtype": "DT_FLOAT", "tensorShape": {"dim": [{"size": "3"}, {"size": "3"}, {"size": "32"}, {"size": "32"}]}}}}}, {"name": "split_185/split_dim", "op": "Const", "attr": {"dtype": {"type": "DT_INT32"}, "value": {"tensor": {"dtype": "DT_INT32", "tensorShape": {}}}}}, {"name": "split_182", "op": "Const", "attr": {"value": {"tensor": {"dtype": "DT_FLOAT", "tensorShape": {"dim": [{"size": "1"}, {"size": "1"}, {"size": "1024"}, {"size": "1024"}]}}}, "dtype": {"type": "DT_FLOAT"}}}, {"name": "ExpandDims_275", "op": "Const", "attr": {"value": {"tensor": {"dtype": "DT_FLOAT", "tensorShape": {"dim": [{"size": "1"}, {"size": "1024"}, {"size": "1"}, {"size": "1"}]}}}, "dtype": {"type": "DT_FLOAT"}}}, {"name": "Const_214", "op": "Const", "attr": {"dtype": {"type": "DT_INT32"}, "value": {"tensor": {"dtype": "DT_INT32", "tensorShape": {"dim": [{"size": "4"}, {"size": "2"}]}}}}}, {"name": "ConstantFolding/split_184-folded-31", "op": "Const", "attr": {"dtype": {"type": "DT_FLOAT"}, "value": {"tensor": {"dtype": "DT_FLOAT", "tensorShape": {"dim": [{"size": "3"}, {"size": "3"}, {"size": "32"}, {"size": "32"}]}}}}}, {"name": "concat_92/axis", "op": "Const", "attr": {"value": {"tensor": {"dtype": "DT_INT32", "tensorShape": {}}}, "dtype": {"type": "DT_INT32"}}}, {"name": "ExpandDims_278", "op": "Const", "attr": {"dtype": {"type": "DT_FLOAT"}, "value": {"tensor": {"dtype": "DT_FLOAT", "tensorShape": {"dim": [{"size": "1"}, {"size": "1024"}, {"size": "1"}, {"size": "1"}]}}}}}, {"name": "split_186", "op": "Const", "attr": {"value": {"tensor": {"dtype": "DT_FLOAT", "tensorShape": {"dim": [{"size": "1"}, {"size": "1"}, {"size": "1024"}, {"size": "1024"}]}}}, "dtype": {"type": "DT_FLOAT"}}}, {"name": "ExpandDims_281", "op": "Const", "attr": {"value": {"tensor": {"dtype": "DT_FLOAT", "tensorShape": {"dim": [{"size": "1"}, {"size": "1024"}, {"size": "1"}, {"size": "1"}]}}}, "dtype": {"type": "DT_FLOAT"}}}, {"name": "ConstantFolding/split_178-folded-0", "op": "Const", "attr": {"value": {"tensor": {"dtype": "DT_FLOAT", "tensorShape": {"dim": [{"size": "3"}, {"size": "3"}, {"size": "32"}, {"size": "32"}]}}}, "dtype": {"type": "DT_FLOAT"}}}, {"name": "ConstantFolding/split_178-folded-1", "op": "Const", "attr": {"value": {"tensor": {"dtype": "DT_FLOAT", "tensorShape": {"dim": [{"size": "3"}, {"size": "3"}, {"size": "32"}, {"size": "32"}]}}}, "dtype": {"type": "DT_FLOAT"}}}, {"name": "ConstantFolding/split_178-folded-2", "op": "Const", "attr": {"value": {"tensor": {"dtype": "DT_FLOAT", "tensorShape": {"dim": [{"size": "3"}, {"size": "3"}, {"size": "32"}, {"size": "32"}]}}}, "dtype": {"type": "DT_FLOAT"}}}, {"name": "ConstantFolding/split_178-folded-3", "op": "Const", "attr": {"dtype": {"type": "DT_FLOAT"}, "value": {"tensor": {"dtype": "DT_FLOAT", "tensorShape": {"dim": [{"size": "3"}, {"size": "3"}, {"size": "32"}, {"size": "32"}]}}}}}, {"name": "ConstantFolding/split_178-folded-4", "op": "Const", "attr": {"value": {"tensor": {"dtype": "DT_FLOAT", "tensorShape": {"dim": [{"size": "3"}, {"size": "3"}, {"size": "32"}, {"size": "32"}]}}}, "dtype": {"type": "DT_FLOAT"}}}, {"name": "ConstantFolding/split_178-folded-5", "op": "Const", "attr": {"dtype": {"type": "DT_FLOAT"}, "value": {"tensor": {"dtype": "DT_FLOAT", "tensorShape": {"dim": [{"size": "3"}, {"size": "3"}, {"size": "32"}, {"size": "32"}]}}}}}, {"name": "ConstantFolding/split_178-folded-6", "op": "Const", "attr": {"value": {"tensor": {"dtype": "DT_FLOAT", "tensorShape": {"dim": [{"size": "3"}, {"size": "3"}, {"size": "32"}, {"size": "32"}]}}}, "dtype": {"type": "DT_FLOAT"}}}, {"name": "ConstantFolding/split_178-folded-7", "op": "Const", "attr": {"dtype": {"type": "DT_FLOAT"}, "value": {"tensor": {"dtype": "DT_FLOAT", "tensorShape": {"dim": [{"size": "3"}, {"size": "3"}, {"size": "32"}, {"size": "32"}]}}}}}, {"name": "ConstantFolding/split_178-folded-8", "op": "Const", "attr": {"value": {"tensor": {"dtype": "DT_FLOAT", "tensorShape": {"dim": [{"size": "3"}, {"size": "3"}, {"size": "32"}, {"size": "32"}]}}}, "dtype": {"type": "DT_FLOAT"}}}, {"name": "ConstantFolding/split_178-folded-9", "op": "Const", "attr": {"dtype": {"type": "DT_FLOAT"}, "value": {"tensor": {"dtype": "DT_FLOAT", "tensorShape": {"dim": [{"size": "3"}, {"size": "3"}, {"size": "32"}, {"size": "32"}]}}}}}, {"name": "ConstantFolding/split_178-folded-10", "op": "Const", "attr": {"dtype": {"type": "DT_FLOAT"}, "value": {"tensor": {"dtype": "DT_FLOAT", "tensorShape": {"dim": [{"size": "3"}, {"size": "3"}, {"size": "32"}, {"size": "32"}]}}}}}, {"name": "ConstantFolding/split_178-folded-11", "op": "Const", "attr": {"value": {"tensor": {"dtype": "DT_FLOAT", "tensorShape": {"dim": [{"size": "3"}, {"size": "3"}, {"size": "32"}, {"size": "32"}]}}}, "dtype": {"type": "DT_FLOAT"}}}, {"name": "ConstantFolding/split_178-folded-12", "op": "Const", "attr": {"value": {"tensor": {"dtype": "DT_FLOAT", "tensorShape": {"dim": [{"size": "3"}, {"size": "3"}, {"size": "32"}, {"size": "32"}]}}}, "dtype": {"type": "DT_FLOAT"}}}, {"name": "ConstantFolding/split_178-folded-13", "op": "Const", "attr": {"dtype": {"type": "DT_FLOAT"}, "value": {"tensor": {"dtype": "DT_FLOAT", "tensorShape": {"dim": [{"size": "3"}, {"size": "3"}, {"size": "32"}, {"size": "32"}]}}}}}, {"name": "ConstantFolding/split_178-folded-14", "op": "Const", "attr": {"value": {"tensor": {"dtype": "DT_FLOAT", "tensorShape": {"dim": [{"size": "3"}, {"size": "3"}, {"size": "32"}, {"size": "32"}]}}}, "dtype": {"type": "DT_FLOAT"}}}, {"name": "ConstantFolding/split_178-folded-15", "op": "Const", "attr": {"value": {"tensor": {"dtype": "DT_FLOAT", "tensorShape": {"dim": [{"size": "3"}, {"size": "3"}, {"size": "32"}, {"size": "32"}]}}}, "dtype": {"type": "DT_FLOAT"}}}, {"name": "ConstantFolding/split_178-folded-16", "op": "Const", "attr": {"dtype": {"type": "DT_FLOAT"}, "value": {"tensor": {"dtype": "DT_FLOAT", "tensorShape": {"dim": [{"size": "3"}, {"size": "3"}, {"size": "32"}, {"size": "32"}]}}}}}, {"name": "ConstantFolding/split_178-folded-17", "op": "Const", "attr": {"dtype": {"type": "DT_FLOAT"}, "value": {"tensor": {"dtype": "DT_FLOAT", "tensorShape": {"dim": [{"size": "3"}, {"size": "3"}, {"size": "32"}, {"size": "32"}]}}}}}, {"name": "ConstantFolding/split_178-folded-18", "op": "Const", "attr": {"value": {"tensor": {"dtype": "DT_FLOAT", "tensorShape": {"dim": [{"size": "3"}, {"size": "3"}, {"size": "32"}, {"size": "32"}]}}}, "dtype": {"type": "DT_FLOAT"}}}, {"name": "ConstantFolding/split_178-folded-19", "op": "Const", "attr": {"value": {"tensor": {"dtype": "DT_FLOAT", "tensorShape": {"dim": [{"size": "3"}, {"size": "3"}, {"size": "32"}, {"size": "32"}]}}}, "dtype": {"type": "DT_FLOAT"}}}, {"name": "ConstantFolding/split_178-folded-20", "op": "Const", "attr": {"dtype": {"type": "DT_FLOAT"}, "value": {"tensor": {"dtype": "DT_FLOAT", "tensorShape": {"dim": [{"size": "3"}, {"size": "3"}, {"size": "32"}, {"size": "32"}]}}}}}, {"name": "ConstantFolding/split_178-folded-21", "op": "Const", "attr": {"dtype": {"type": "DT_FLOAT"}, "value": {"tensor": {"dtype": "DT_FLOAT", "tensorShape": {"dim": [{"size": "3"}, {"size": "3"}, {"size": "32"}, {"size": "32"}]}}}}}, {"name": "ConstantFolding/split_178-folded-22", "op": "Const", "attr": {"value": {"tensor": {"dtype": "DT_FLOAT", "tensorShape": {"dim": [{"size": "3"}, {"size": "3"}, {"size": "32"}, {"size": "32"}]}}}, "dtype": {"type": "DT_FLOAT"}}}, {"name": "ConstantFolding/split_178-folded-23", "op": "Const", "attr": {"dtype": {"type": "DT_FLOAT"}, "value": {"tensor": {"dtype": "DT_FLOAT", "tensorShape": {"dim": [{"size": "3"}, {"size": "3"}, {"size": "32"}, {"size": "32"}]}}}}}, {"name": "ConstantFolding/split_178-folded-24", "op": "Const", "attr": {"dtype": {"type": "DT_FLOAT"}, "value": {"tensor": {"dtype": "DT_FLOAT", "tensorShape": {"dim": [{"size": "3"}, {"size": "3"}, {"size": "32"}, {"size": "32"}]}}}}}, {"name": "ConstantFolding/split_178-folded-25", "op": "Const", "attr": {"value": {"tensor": {"dtype": "DT_FLOAT", "tensorShape": {"dim": [{"size": "3"}, {"size": "3"}, {"size": "32"}, {"size": "32"}]}}}, "dtype": {"type": "DT_FLOAT"}}}, {"name": "ConstantFolding/split_178-folded-26", "op": "Const", "attr": {"dtype": {"type": "DT_FLOAT"}, "value": {"tensor": {"dtype": "DT_FLOAT", "tensorShape": {"dim": [{"size": "3"}, {"size": "3"}, {"size": "32"}, {"size": "32"}]}}}}}, {"name": "ConstantFolding/split_178-folded-27", "op": "Const", "attr": {"dtype": {"type": "DT_FLOAT"}, "value": {"tensor": {"dtype": "DT_FLOAT", "tensorShape": {"dim": [{"size": "3"}, {"size": "3"}, {"size": "32"}, {"size": "32"}]}}}}}, {"name": "ConstantFolding/split_178-folded-28", "op": "Const", "attr": {"dtype": {"type": "DT_FLOAT"}, "value": {"tensor": {"dtype": "DT_FLOAT", "tensorShape": {"dim": [{"size": "3"}, {"size": "3"}, {"size": "32"}, {"size": "32"}]}}}}}, {"name": "ConstantFolding/split_178-folded-29", "op": "Const", "attr": {"value": {"tensor": {"dtype": "DT_FLOAT", "tensorShape": {"dim": [{"size": "3"}, {"size": "3"}, {"size": "32"}, {"size": "32"}]}}}, "dtype": {"type": "DT_FLOAT"}}}, {"name": "ConstantFolding/split_178-folded-30", "op": "Const", "attr": {"dtype": {"type": "DT_FLOAT"}, "value": {"tensor": {"dtype": "DT_FLOAT", "tensorShape": {"dim": [{"size": "3"}, {"size": "3"}, {"size": "32"}, {"size": "32"}]}}}}}, {"name": "split_179/split_dim", "op": "Const", "attr": {"value": {"tensor": {"dtype": "DT_INT32", "tensorShape": {}}}, "dtype": {"type": "DT_INT32"}}}, {"name": "split_176", "op": "Const", "attr": {"dtype": {"type": "DT_FLOAT"}, "value": {"tensor": {"dtype": "DT_FLOAT", "tensorShape": {"dim": [{"size": "1"}, {"size": "1"}, {"size": "1024"}, {"size": "1024"}]}}}}}, {"name": "ExpandDims_266", "op": "Const", "attr": {"value": {"tensor": {"dtype": "DT_FLOAT", "tensorShape": {"dim": [{"size": "1"}, {"size": "1024"}, {"size": "1"}, {"size": "1"}]}}}, "dtype": {"type": "DT_FLOAT"}}}, {"name": "Const_207", "op": "Const", "attr": {"dtype": {"type": "DT_INT32"}, "value": {"tensor": {"dtype": "DT_INT32", "tensorShape": {"dim": [{"size": "4"}, {"size": "2"}]}}}}}, {"name": "ConstantFolding/split_178-folded-31", "op": "Const", "attr": {"dtype": {"type": "DT_FLOAT"}, "value": {"tensor": {"dtype": "DT_FLOAT", "tensorShape": {"dim": [{"size": "3"}, {"size": "3"}, {"size": "32"}, {"size": "32"}]}}}}}, {"name": "concat_89/axis", "op": "Const", "attr": {"value": {"tensor": {"dtype": "DT_INT32", "tensorShape": {}}}, "dtype": {"type": "DT_INT32"}}}, {"name": "ExpandDims_269", "op": "Const", "attr": {"value": {"tensor": {"dtype": "DT_FLOAT", "tensorShape": {"dim": [{"size": "1"}, {"size": "1024"}, {"size": "1"}, {"size": "1"}]}}}, "dtype": {"type": "DT_FLOAT"}}}, {"name": "split_180", "op": "Const", "attr": {"dtype": {"type": "DT_FLOAT"}, "value": {"tensor": {"dtype": "DT_FLOAT", "tensorShape": {"dim": [{"size": "1"}, {"size": "1"}, {"size": "1024"}, {"size": "1024"}]}}}}}, {"name": "ExpandDims_272", "op": "Const", "attr": {"value": {"tensor": {"dtype": "DT_FLOAT", "tensorShape": {"dim": [{"size": "1"}, {"size": "1024"}, {"size": "1"}, {"size": "1"}]}}}, "dtype": {"type": "DT_FLOAT"}}}, {"name": "ConstantFolding/split_172-folded-0", "op": "Const", "attr": {"dtype": {"type": "DT_FLOAT"}, "value": {"tensor": {"dtype": "DT_FLOAT", "tensorShape": {"dim": [{"size": "3"}, {"size": "3"}, {"size": "32"}, {"size": "32"}]}}}}}, {"name": "ConstantFolding/split_172-folded-1", "op": "Const", "attr": {"value": {"tensor": {"dtype": "DT_FLOAT", "tensorShape": {"dim": [{"size": "3"}, {"size": "3"}, {"size": "32"}, {"size": "32"}]}}}, "dtype": {"type": "DT_FLOAT"}}}, {"name": "ConstantFolding/split_172-folded-2", "op": "Const", "attr": {"value": {"tensor": {"dtype": "DT_FLOAT", "tensorShape": {"dim": [{"size": "3"}, {"size": "3"}, {"size": "32"}, {"size": "32"}]}}}, "dtype": {"type": "DT_FLOAT"}}}, {"name": "ConstantFolding/split_172-folded-3", "op": "Const", "attr": {"value": {"tensor": {"dtype": "DT_FLOAT", "tensorShape": {"dim": [{"size": "3"}, {"size": "3"}, {"size": "32"}, {"size": "32"}]}}}, "dtype": {"type": "DT_FLOAT"}}}, {"name": "ConstantFolding/split_172-folded-4", "op": "Const", "attr": {"dtype": {"type": "DT_FLOAT"}, "value": {"tensor": {"dtype": "DT_FLOAT", "tensorShape": {"dim": [{"size": "3"}, {"size": "3"}, {"size": "32"}, {"size": "32"}]}}}}}, {"name": "ConstantFolding/split_172-folded-5", "op": "Const", "attr": {"value": {"tensor": {"dtype": "DT_FLOAT", "tensorShape": {"dim": [{"size": "3"}, {"size": "3"}, {"size": "32"}, {"size": "32"}]}}}, "dtype": {"type": "DT_FLOAT"}}}, {"name": "ConstantFolding/split_172-folded-6", "op": "Const", "attr": {"dtype": {"type": "DT_FLOAT"}, "value": {"tensor": {"dtype": "DT_FLOAT", "tensorShape": {"dim": [{"size": "3"}, {"size": "3"}, {"size": "32"}, {"size": "32"}]}}}}}, {"name": "ConstantFolding/split_172-folded-7", "op": "Const", "attr": {"value": {"tensor": {"dtype": "DT_FLOAT", "tensorShape": {"dim": [{"size": "3"}, {"size": "3"}, {"size": "32"}, {"size": "32"}]}}}, "dtype": {"type": "DT_FLOAT"}}}, {"name": "ConstantFolding/split_172-folded-8", "op": "Const", "attr": {"dtype": {"type": "DT_FLOAT"}, "value": {"tensor": {"dtype": "DT_FLOAT", "tensorShape": {"dim": [{"size": "3"}, {"size": "3"}, {"size": "32"}, {"size": "32"}]}}}}}, {"name": "ConstantFolding/split_172-folded-9", "op": "Const", "attr": {"dtype": {"type": "DT_FLOAT"}, "value": {"tensor": {"dtype": "DT_FLOAT", "tensorShape": {"dim": [{"size": "3"}, {"size": "3"}, {"size": "32"}, {"size": "32"}]}}}}}, {"name": "ConstantFolding/split_172-folded-10", "op": "Const", "attr": {"value": {"tensor": {"dtype": "DT_FLOAT", "tensorShape": {"dim": [{"size": "3"}, {"size": "3"}, {"size": "32"}, {"size": "32"}]}}}, "dtype": {"type": "DT_FLOAT"}}}, {"name": "ConstantFolding/split_172-folded-11", "op": "Const", "attr": {"dtype": {"type": "DT_FLOAT"}, "value": {"tensor": {"dtype": "DT_FLOAT", "tensorShape": {"dim": [{"size": "3"}, {"size": "3"}, {"size": "32"}, {"size": "32"}]}}}}}, {"name": "ConstantFolding/split_172-folded-12", "op": "Const", "attr": {"dtype": {"type": "DT_FLOAT"}, "value": {"tensor": {"dtype": "DT_FLOAT", "tensorShape": {"dim": [{"size": "3"}, {"size": "3"}, {"size": "32"}, {"size": "32"}]}}}}}, {"name": "ConstantFolding/split_172-folded-13", "op": "Const", "attr": {"value": {"tensor": {"dtype": "DT_FLOAT", "tensorShape": {"dim": [{"size": "3"}, {"size": "3"}, {"size": "32"}, {"size": "32"}]}}}, "dtype": {"type": "DT_FLOAT"}}}, {"name": "ConstantFolding/split_172-folded-14", "op": "Const", "attr": {"value": {"tensor": {"dtype": "DT_FLOAT", "tensorShape": {"dim": [{"size": "3"}, {"size": "3"}, {"size": "32"}, {"size": "32"}]}}}, "dtype": {"type": "DT_FLOAT"}}}, {"name": "ConstantFolding/split_172-folded-15", "op": "Const", "attr": {"dtype": {"type": "DT_FLOAT"}, "value": {"tensor": {"dtype": "DT_FLOAT", "tensorShape": {"dim": [{"size": "3"}, {"size": "3"}, {"size": "32"}, {"size": "32"}]}}}}}, {"name": "ConstantFolding/split_172-folded-16", "op": "Const", "attr": {"dtype": {"type": "DT_FLOAT"}, "value": {"tensor": {"dtype": "DT_FLOAT", "tensorShape": {"dim": [{"size": "3"}, {"size": "3"}, {"size": "32"}, {"size": "32"}]}}}}}, {"name": "ConstantFolding/split_172-folded-17", "op": "Const", "attr": {"dtype": {"type": "DT_FLOAT"}, "value": {"tensor": {"dtype": "DT_FLOAT", "tensorShape": {"dim": [{"size": "3"}, {"size": "3"}, {"size": "32"}, {"size": "32"}]}}}}}, {"name": "ConstantFolding/split_172-folded-18", "op": "Const", "attr": {"dtype": {"type": "DT_FLOAT"}, "value": {"tensor": {"dtype": "DT_FLOAT", "tensorShape": {"dim": [{"size": "3"}, {"size": "3"}, {"size": "32"}, {"size": "32"}]}}}}}, {"name": "ConstantFolding/split_172-folded-19", "op": "Const", "attr": {"dtype": {"type": "DT_FLOAT"}, "value": {"tensor": {"dtype": "DT_FLOAT", "tensorShape": {"dim": [{"size": "3"}, {"size": "3"}, {"size": "32"}, {"size": "32"}]}}}}}, {"name": "ConstantFolding/split_172-folded-20", "op": "Const", "attr": {"dtype": {"type": "DT_FLOAT"}, "value": {"tensor": {"dtype": "DT_FLOAT", "tensorShape": {"dim": [{"size": "3"}, {"size": "3"}, {"size": "32"}, {"size": "32"}]}}}}}, {"name": "ConstantFolding/split_172-folded-21", "op": "Const", "attr": {"dtype": {"type": "DT_FLOAT"}, "value": {"tensor": {"dtype": "DT_FLOAT", "tensorShape": {"dim": [{"size": "3"}, {"size": "3"}, {"size": "32"}, {"size": "32"}]}}}}}, {"name": "ConstantFolding/split_172-folded-22", "op": "Const", "attr": {"value": {"tensor": {"dtype": "DT_FLOAT", "tensorShape": {"dim": [{"size": "3"}, {"size": "3"}, {"size": "32"}, {"size": "32"}]}}}, "dtype": {"type": "DT_FLOAT"}}}, {"name": "ConstantFolding/split_172-folded-23", "op": "Const", "attr": {"value": {"tensor": {"dtype": "DT_FLOAT", "tensorShape": {"dim": [{"size": "3"}, {"size": "3"}, {"size": "32"}, {"size": "32"}]}}}, "dtype": {"type": "DT_FLOAT"}}}, {"name": "ConstantFolding/split_172-folded-24", "op": "Const", "attr": {"value": {"tensor": {"dtype": "DT_FLOAT", "tensorShape": {"dim": [{"size": "3"}, {"size": "3"}, {"size": "32"}, {"size": "32"}]}}}, "dtype": {"type": "DT_FLOAT"}}}, {"name": "ConstantFolding/split_172-folded-25", "op": "Const", "attr": {"dtype": {"type": "DT_FLOAT"}, "value": {"tensor": {"dtype": "DT_FLOAT", "tensorShape": {"dim": [{"size": "3"}, {"size": "3"}, {"size": "32"}, {"size": "32"}]}}}}}, {"name": "ConstantFolding/split_172-folded-26", "op": "Const", "attr": {"value": {"tensor": {"dtype": "DT_FLOAT", "tensorShape": {"dim": [{"size": "3"}, {"size": "3"}, {"size": "32"}, {"size": "32"}]}}}, "dtype": {"type": "DT_FLOAT"}}}, {"name": "ConstantFolding/split_172-folded-27", "op": "Const", "attr": {"value": {"tensor": {"dtype": "DT_FLOAT", "tensorShape": {"dim": [{"size": "3"}, {"size": "3"}, {"size": "32"}, {"size": "32"}]}}}, "dtype": {"type": "DT_FLOAT"}}}, {"name": "ConstantFolding/split_172-folded-28", "op": "Const", "attr": {"dtype": {"type": "DT_FLOAT"}, "value": {"tensor": {"dtype": "DT_FLOAT", "tensorShape": {"dim": [{"size": "3"}, {"size": "3"}, {"size": "32"}, {"size": "32"}]}}}}}, {"name": "ConstantFolding/split_172-folded-29", "op": "Const", "attr": {"dtype": {"type": "DT_FLOAT"}, "value": {"tensor": {"dtype": "DT_FLOAT", "tensorShape": {"dim": [{"size": "3"}, {"size": "3"}, {"size": "32"}, {"size": "32"}]}}}}}, {"name": "ConstantFolding/split_172-folded-30", "op": "Const", "attr": {"dtype": {"type": "DT_FLOAT"}, "value": {"tensor": {"dtype": "DT_FLOAT", "tensorShape": {"dim": [{"size": "3"}, {"size": "3"}, {"size": "32"}, {"size": "32"}]}}}}}, {"name": "split_173/split_dim", "op": "Const", "attr": {"value": {"tensor": {"dtype": "DT_INT32", "tensorShape": {}}}, "dtype": {"type": "DT_INT32"}}}, {"name": "split_170", "op": "Const", "attr": {"value": {"tensor": {"dtype": "DT_FLOAT", "tensorShape": {"dim": [{"size": "1"}, {"size": "1"}, {"size": "1024"}, {"size": "1024"}]}}}, "dtype": {"type": "DT_FLOAT"}}}, {"name": "ExpandDims_257", "op": "Const", "attr": {"value": {"tensor": {"dtype": "DT_FLOAT", "tensorShape": {"dim": [{"size": "1"}, {"size": "1024"}, {"size": "1"}, {"size": "1"}]}}}, "dtype": {"type": "DT_FLOAT"}}}, {"name": "Const_200", "op": "Const", "attr": {"dtype": {"type": "DT_INT32"}, "value": {"tensor": {"dtype": "DT_INT32", "tensorShape": {"dim": [{"size": "4"}, {"size": "2"}]}}}}}, {"name": "ConstantFolding/split_172-folded-31", "op": "Const", "attr": {"dtype": {"type": "DT_FLOAT"}, "value": {"tensor": {"dtype": "DT_FLOAT", "tensorShape": {"dim": [{"size": "3"}, {"size": "3"}, {"size": "32"}, {"size": "32"}]}}}}}, {"name": "concat_86/axis", "op": "Const", "attr": {"value": {"tensor": {"dtype": "DT_INT32", "tensorShape": {}}}, "dtype": {"type": "DT_INT32"}}}, {"name": "ExpandDims_260", "op": "Const", "attr": {"dtype": {"type": "DT_FLOAT"}, "value": {"tensor": {"dtype": "DT_FLOAT", "tensorShape": {"dim": [{"size": "1"}, {"size": "1024"}, {"size": "1"}, {"size": "1"}]}}}}}, {"name": "split_174", "op": "Const", "attr": {"value": {"tensor": {"dtype": "DT_FLOAT", "tensorShape": {"dim": [{"size": "1"}, {"size": "1"}, {"size": "1024"}, {"size": "1024"}]}}}, "dtype": {"type": "DT_FLOAT"}}}, {"name": "ExpandDims_263", "op": "Const", "attr": {"dtype": {"type": "DT_FLOAT"}, "value": {"tensor": {"dtype": "DT_FLOAT", "tensorShape": {"dim": [{"size": "1"}, {"size": "1024"}, {"size": "1"}, {"size": "1"}]}}}}}, {"name": "ConstantFolding/split_166-folded-0", "op": "Const", "attr": {"dtype": {"type": "DT_FLOAT"}, "value": {"tensor": {"dtype": "DT_FLOAT", "tensorShape": {"dim": [{"size": "3"}, {"size": "3"}, {"size": "32"}, {"size": "32"}]}}}}}, {"name": "ConstantFolding/split_166-folded-1", "op": "Const", "attr": {"value": {"tensor": {"dtype": "DT_FLOAT", "tensorShape": {"dim": [{"size": "3"}, {"size": "3"}, {"size": "32"}, {"size": "32"}]}}}, "dtype": {"type": "DT_FLOAT"}}}, {"name": "ConstantFolding/split_166-folded-2", "op": "Const", "attr": {"dtype": {"type": "DT_FLOAT"}, "value": {"tensor": {"dtype": "DT_FLOAT", "tensorShape": {"dim": [{"size": "3"}, {"size": "3"}, {"size": "32"}, {"size": "32"}]}}}}}, {"name": "ConstantFolding/split_166-folded-3", "op": "Const", "attr": {"value": {"tensor": {"dtype": "DT_FLOAT", "tensorShape": {"dim": [{"size": "3"}, {"size": "3"}, {"size": "32"}, {"size": "32"}]}}}, "dtype": {"type": "DT_FLOAT"}}}, {"name": "ConstantFolding/split_166-folded-4", "op": "Const", "attr": {"dtype": {"type": "DT_FLOAT"}, "value": {"tensor": {"dtype": "DT_FLOAT", "tensorShape": {"dim": [{"size": "3"}, {"size": "3"}, {"size": "32"}, {"size": "32"}]}}}}}, {"name": "ConstantFolding/split_166-folded-5", "op": "Const", "attr": {"value": {"tensor": {"dtype": "DT_FLOAT", "tensorShape": {"dim": [{"size": "3"}, {"size": "3"}, {"size": "32"}, {"size": "32"}]}}}, "dtype": {"type": "DT_FLOAT"}}}, {"name": "ConstantFolding/split_166-folded-6", "op": "Const", "attr": {"dtype": {"type": "DT_FLOAT"}, "value": {"tensor": {"dtype": "DT_FLOAT", "tensorShape": {"dim": [{"size": "3"}, {"size": "3"}, {"size": "32"}, {"size": "32"}]}}}}}, {"name": "ConstantFolding/split_166-folded-7", "op": "Const", "attr": {"dtype": {"type": "DT_FLOAT"}, "value": {"tensor": {"dtype": "DT_FLOAT", "tensorShape": {"dim": [{"size": "3"}, {"size": "3"}, {"size": "32"}, {"size": "32"}]}}}}}, {"name": "ConstantFolding/split_166-folded-8", "op": "Const", "attr": {"value": {"tensor": {"dtype": "DT_FLOAT", "tensorShape": {"dim": [{"size": "3"}, {"size": "3"}, {"size": "32"}, {"size": "32"}]}}}, "dtype": {"type": "DT_FLOAT"}}}, {"name": "ConstantFolding/split_166-folded-9", "op": "Const", "attr": {"value": {"tensor": {"dtype": "DT_FLOAT", "tensorShape": {"dim": [{"size": "3"}, {"size": "3"}, {"size": "32"}, {"size": "32"}]}}}, "dtype": {"type": "DT_FLOAT"}}}, {"name": "ConstantFolding/split_166-folded-10", "op": "Const", "attr": {"dtype": {"type": "DT_FLOAT"}, "value": {"tensor": {"dtype": "DT_FLOAT", "tensorShape": {"dim": [{"size": "3"}, {"size": "3"}, {"size": "32"}, {"size": "32"}]}}}}}, {"name": "ConstantFolding/split_166-folded-11", "op": "Const", "attr": {"dtype": {"type": "DT_FLOAT"}, "value": {"tensor": {"dtype": "DT_FLOAT", "tensorShape": {"dim": [{"size": "3"}, {"size": "3"}, {"size": "32"}, {"size": "32"}]}}}}}, {"name": "ConstantFolding/split_166-folded-12", "op": "Const", "attr": {"dtype": {"type": "DT_FLOAT"}, "value": {"tensor": {"dtype": "DT_FLOAT", "tensorShape": {"dim": [{"size": "3"}, {"size": "3"}, {"size": "32"}, {"size": "32"}]}}}}}, {"name": "ConstantFolding/split_166-folded-13", "op": "Const", "attr": {"dtype": {"type": "DT_FLOAT"}, "value": {"tensor": {"dtype": "DT_FLOAT", "tensorShape": {"dim": [{"size": "3"}, {"size": "3"}, {"size": "32"}, {"size": "32"}]}}}}}, {"name": "ConstantFolding/split_166-folded-14", "op": "Const", "attr": {"value": {"tensor": {"dtype": "DT_FLOAT", "tensorShape": {"dim": [{"size": "3"}, {"size": "3"}, {"size": "32"}, {"size": "32"}]}}}, "dtype": {"type": "DT_FLOAT"}}}, {"name": "ConstantFolding/split_166-folded-15", "op": "Const", "attr": {"value": {"tensor": {"dtype": "DT_FLOAT", "tensorShape": {"dim": [{"size": "3"}, {"size": "3"}, {"size": "32"}, {"size": "32"}]}}}, "dtype": {"type": "DT_FLOAT"}}}, {"name": "ConstantFolding/split_166-folded-16", "op": "Const", "attr": {"value": {"tensor": {"dtype": "DT_FLOAT", "tensorShape": {"dim": [{"size": "3"}, {"size": "3"}, {"size": "32"}, {"size": "32"}]}}}, "dtype": {"type": "DT_FLOAT"}}}, {"name": "ConstantFolding/split_166-folded-17", "op": "Const", "attr": {"dtype": {"type": "DT_FLOAT"}, "value": {"tensor": {"dtype": "DT_FLOAT", "tensorShape": {"dim": [{"size": "3"}, {"size": "3"}, {"size": "32"}, {"size": "32"}]}}}}}, {"name": "ConstantFolding/split_166-folded-18", "op": "Const", "attr": {"value": {"tensor": {"dtype": "DT_FLOAT", "tensorShape": {"dim": [{"size": "3"}, {"size": "3"}, {"size": "32"}, {"size": "32"}]}}}, "dtype": {"type": "DT_FLOAT"}}}, {"name": "ConstantFolding/split_166-folded-19", "op": "Const", "attr": {"value": {"tensor": {"dtype": "DT_FLOAT", "tensorShape": {"dim": [{"size": "3"}, {"size": "3"}, {"size": "32"}, {"size": "32"}]}}}, "dtype": {"type": "DT_FLOAT"}}}, {"name": "ConstantFolding/split_166-folded-20", "op": "Const", "attr": {"dtype": {"type": "DT_FLOAT"}, "value": {"tensor": {"dtype": "DT_FLOAT", "tensorShape": {"dim": [{"size": "3"}, {"size": "3"}, {"size": "32"}, {"size": "32"}]}}}}}, {"name": "ConstantFolding/split_166-folded-21", "op": "Const", "attr": {"value": {"tensor": {"dtype": "DT_FLOAT", "tensorShape": {"dim": [{"size": "3"}, {"size": "3"}, {"size": "32"}, {"size": "32"}]}}}, "dtype": {"type": "DT_FLOAT"}}}, {"name": "ConstantFolding/split_166-folded-22", "op": "Const", "attr": {"value": {"tensor": {"dtype": "DT_FLOAT", "tensorShape": {"dim": [{"size": "3"}, {"size": "3"}, {"size": "32"}, {"size": "32"}]}}}, "dtype": {"type": "DT_FLOAT"}}}, {"name": "ConstantFolding/split_166-folded-23", "op": "Const", "attr": {"dtype": {"type": "DT_FLOAT"}, "value": {"tensor": {"dtype": "DT_FLOAT", "tensorShape": {"dim": [{"size": "3"}, {"size": "3"}, {"size": "32"}, {"size": "32"}]}}}}}, {"name": "ConstantFolding/split_166-folded-24", "op": "Const", "attr": {"value": {"tensor": {"dtype": "DT_FLOAT", "tensorShape": {"dim": [{"size": "3"}, {"size": "3"}, {"size": "32"}, {"size": "32"}]}}}, "dtype": {"type": "DT_FLOAT"}}}, {"name": "ConstantFolding/split_166-folded-25", "op": "Const", "attr": {"value": {"tensor": {"dtype": "DT_FLOAT", "tensorShape": {"dim": [{"size": "3"}, {"size": "3"}, {"size": "32"}, {"size": "32"}]}}}, "dtype": {"type": "DT_FLOAT"}}}, {"name": "ConstantFolding/split_166-folded-26", "op": "Const", "attr": {"value": {"tensor": {"dtype": "DT_FLOAT", "tensorShape": {"dim": [{"size": "3"}, {"size": "3"}, {"size": "32"}, {"size": "32"}]}}}, "dtype": {"type": "DT_FLOAT"}}}, {"name": "ConstantFolding/split_166-folded-27", "op": "Const", "attr": {"dtype": {"type": "DT_FLOAT"}, "value": {"tensor": {"dtype": "DT_FLOAT", "tensorShape": {"dim": [{"size": "3"}, {"size": "3"}, {"size": "32"}, {"size": "32"}]}}}}}, {"name": "ConstantFolding/split_166-folded-28", "op": "Const", "attr": {"value": {"tensor": {"dtype": "DT_FLOAT", "tensorShape": {"dim": [{"size": "3"}, {"size": "3"}, {"size": "32"}, {"size": "32"}]}}}, "dtype": {"type": "DT_FLOAT"}}}, {"name": "ConstantFolding/split_166-folded-29", "op": "Const", "attr": {"value": {"tensor": {"dtype": "DT_FLOAT", "tensorShape": {"dim": [{"size": "3"}, {"size": "3"}, {"size": "32"}, {"size": "32"}]}}}, "dtype": {"type": "DT_FLOAT"}}}, {"name": "ConstantFolding/split_166-folded-30", "op": "Const", "attr": {"value": {"tensor": {"dtype": "DT_FLOAT", "tensorShape": {"dim": [{"size": "3"}, {"size": "3"}, {"size": "32"}, {"size": "32"}]}}}, "dtype": {"type": "DT_FLOAT"}}}, {"name": "split_167/split_dim", "op": "Const", "attr": {"value": {"tensor": {"dtype": "DT_INT32", "tensorShape": {}}}, "dtype": {"type": "DT_INT32"}}}, {"name": "split_164", "op": "Const", "attr": {"value": {"tensor": {"dtype": "DT_FLOAT", "tensorShape": {"dim": [{"size": "1"}, {"size": "1"}, {"size": "1024"}, {"size": "1024"}]}}}, "dtype": {"type": "DT_FLOAT"}}}, {"name": "ExpandDims_248", "op": "Const", "attr": {"dtype": {"type": "DT_FLOAT"}, "value": {"tensor": {"dtype": "DT_FLOAT", "tensorShape": {"dim": [{"size": "1"}, {"size": "1024"}, {"size": "1"}, {"size": "1"}]}}}}}, {"name": "Const_193", "op": "Const", "attr": {"value": {"tensor": {"dtype": "DT_INT32", "tensorShape": {"dim": [{"size": "4"}, {"size": "2"}]}}}, "dtype": {"type": "DT_INT32"}}}, {"name": "ConstantFolding/split_166-folded-31", "op": "Const", "attr": {"value": {"tensor": {"dtype": "DT_FLOAT", "tensorShape": {"dim": [{"size": "3"}, {"size": "3"}, {"size": "32"}, {"size": "32"}]}}}, "dtype": {"type": "DT_FLOAT"}}}, {"name": "concat_83/axis", "op": "Const", "attr": {"value": {"tensor": {"dtype": "DT_INT32", "tensorShape": {}}}, "dtype": {"type": "DT_INT32"}}}, {"name": "ExpandDims_251", "op": "Const", "attr": {"dtype": {"type": "DT_FLOAT"}, "value": {"tensor": {"dtype": "DT_FLOAT", "tensorShape": {"dim": [{"size": "1"}, {"size": "1024"}, {"size": "1"}, {"size": "1"}]}}}}}, {"name": "split_168", "op": "Const", "attr": {"dtype": {"type": "DT_FLOAT"}, "value": {"tensor": {"dtype": "DT_FLOAT", "tensorShape": {"dim": [{"size": "1"}, {"size": "1"}, {"size": "1024"}, {"size": "1024"}]}}}}}, {"name": "ExpandDims_254", "op": "Const", "attr": {"dtype": {"type": "DT_FLOAT"}, "value": {"tensor": {"dtype": "DT_FLOAT", "tensorShape": {"dim": [{"size": "1"}, {"size": "1024"}, {"size": "1"}, {"size": "1"}]}}}}}, {"name": "ConstantFolding/split_160-folded-0", "op": "Const", "attr": {"dtype": {"type": "DT_FLOAT"}, "value": {"tensor": {"dtype": "DT_FLOAT", "tensorShape": {"dim": [{"size": "3"}, {"size": "3"}, {"size": "32"}, {"size": "32"}]}}}}}, {"name": "ConstantFolding/split_160-folded-1", "op": "Const", "attr": {"dtype": {"type": "DT_FLOAT"}, "value": {"tensor": {"dtype": "DT_FLOAT", "tensorShape": {"dim": [{"size": "3"}, {"size": "3"}, {"size": "32"}, {"size": "32"}]}}}}}, {"name": "ConstantFolding/split_160-folded-2", "op": "Const", "attr": {"value": {"tensor": {"dtype": "DT_FLOAT", "tensorShape": {"dim": [{"size": "3"}, {"size": "3"}, {"size": "32"}, {"size": "32"}]}}}, "dtype": {"type": "DT_FLOAT"}}}, {"name": "ConstantFolding/split_160-folded-3", "op": "Const", "attr": {"dtype": {"type": "DT_FLOAT"}, "value": {"tensor": {"dtype": "DT_FLOAT", "tensorShape": {"dim": [{"size": "3"}, {"size": "3"}, {"size": "32"}, {"size": "32"}]}}}}}, {"name": "ConstantFolding/split_160-folded-4", "op": "Const", "attr": {"value": {"tensor": {"dtype": "DT_FLOAT", "tensorShape": {"dim": [{"size": "3"}, {"size": "3"}, {"size": "32"}, {"size": "32"}]}}}, "dtype": {"type": "DT_FLOAT"}}}, {"name": "ConstantFolding/split_160-folded-5", "op": "Const", "attr": {"value": {"tensor": {"dtype": "DT_FLOAT", "tensorShape": {"dim": [{"size": "3"}, {"size": "3"}, {"size": "32"}, {"size": "32"}]}}}, "dtype": {"type": "DT_FLOAT"}}}, {"name": "ConstantFolding/split_160-folded-6", "op": "Const", "attr": {"value": {"tensor": {"dtype": "DT_FLOAT", "tensorShape": {"dim": [{"size": "3"}, {"size": "3"}, {"size": "32"}, {"size": "32"}]}}}, "dtype": {"type": "DT_FLOAT"}}}, {"name": "ConstantFolding/split_160-folded-7", "op": "Const", "attr": {"dtype": {"type": "DT_FLOAT"}, "value": {"tensor": {"dtype": "DT_FLOAT", "tensorShape": {"dim": [{"size": "3"}, {"size": "3"}, {"size": "32"}, {"size": "32"}]}}}}}, {"name": "ConstantFolding/split_160-folded-8", "op": "Const", "attr": {"dtype": {"type": "DT_FLOAT"}, "value": {"tensor": {"dtype": "DT_FLOAT", "tensorShape": {"dim": [{"size": "3"}, {"size": "3"}, {"size": "32"}, {"size": "32"}]}}}}}, {"name": "ConstantFolding/split_160-folded-9", "op": "Const", "attr": {"value": {"tensor": {"dtype": "DT_FLOAT", "tensorShape": {"dim": [{"size": "3"}, {"size": "3"}, {"size": "32"}, {"size": "32"}]}}}, "dtype": {"type": "DT_FLOAT"}}}, {"name": "ConstantFolding/split_160-folded-10", "op": "Const", "attr": {"value": {"tensor": {"dtype": "DT_FLOAT", "tensorShape": {"dim": [{"size": "3"}, {"size": "3"}, {"size": "32"}, {"size": "32"}]}}}, "dtype": {"type": "DT_FLOAT"}}}, {"name": "ConstantFolding/split_160-folded-11", "op": "Const", "attr": {"value": {"tensor": {"dtype": "DT_FLOAT", "tensorShape": {"dim": [{"size": "3"}, {"size": "3"}, {"size": "32"}, {"size": "32"}]}}}, "dtype": {"type": "DT_FLOAT"}}}, {"name": "ConstantFolding/split_160-folded-12", "op": "Const", "attr": {"dtype": {"type": "DT_FLOAT"}, "value": {"tensor": {"dtype": "DT_FLOAT", "tensorShape": {"dim": [{"size": "3"}, {"size": "3"}, {"size": "32"}, {"size": "32"}]}}}}}, {"name": "ConstantFolding/split_160-folded-13", "op": "Const", "attr": {"value": {"tensor": {"dtype": "DT_FLOAT", "tensorShape": {"dim": [{"size": "3"}, {"size": "3"}, {"size": "32"}, {"size": "32"}]}}}, "dtype": {"type": "DT_FLOAT"}}}, {"name": "ConstantFolding/split_160-folded-14", "op": "Const", "attr": {"value": {"tensor": {"dtype": "DT_FLOAT", "tensorShape": {"dim": [{"size": "3"}, {"size": "3"}, {"size": "32"}, {"size": "32"}]}}}, "dtype": {"type": "DT_FLOAT"}}}, {"name": "ConstantFolding/split_160-folded-15", "op": "Const", "attr": {"value": {"tensor": {"dtype": "DT_FLOAT", "tensorShape": {"dim": [{"size": "3"}, {"size": "3"}, {"size": "32"}, {"size": "32"}]}}}, "dtype": {"type": "DT_FLOAT"}}}, {"name": "ConstantFolding/split_160-folded-16", "op": "Const", "attr": {"value": {"tensor": {"dtype": "DT_FLOAT", "tensorShape": {"dim": [{"size": "3"}, {"size": "3"}, {"size": "32"}, {"size": "32"}]}}}, "dtype": {"type": "DT_FLOAT"}}}, {"name": "ConstantFolding/split_160-folded-17", "op": "Const", "attr": {"value": {"tensor": {"dtype": "DT_FLOAT", "tensorShape": {"dim": [{"size": "3"}, {"size": "3"}, {"size": "32"}, {"size": "32"}]}}}, "dtype": {"type": "DT_FLOAT"}}}, {"name": "ConstantFolding/split_160-folded-18", "op": "Const", "attr": {"value": {"tensor": {"dtype": "DT_FLOAT", "tensorShape": {"dim": [{"size": "3"}, {"size": "3"}, {"size": "32"}, {"size": "32"}]}}}, "dtype": {"type": "DT_FLOAT"}}}, {"name": "ConstantFolding/split_160-folded-19", "op": "Const", "attr": {"dtype": {"type": "DT_FLOAT"}, "value": {"tensor": {"dtype": "DT_FLOAT", "tensorShape": {"dim": [{"size": "3"}, {"size": "3"}, {"size": "32"}, {"size": "32"}]}}}}}, {"name": "ConstantFolding/split_160-folded-20", "op": "Const", "attr": {"dtype": {"type": "DT_FLOAT"}, "value": {"tensor": {"dtype": "DT_FLOAT", "tensorShape": {"dim": [{"size": "3"}, {"size": "3"}, {"size": "32"}, {"size": "32"}]}}}}}, {"name": "ConstantFolding/split_160-folded-21", "op": "Const", "attr": {"dtype": {"type": "DT_FLOAT"}, "value": {"tensor": {"dtype": "DT_FLOAT", "tensorShape": {"dim": [{"size": "3"}, {"size": "3"}, {"size": "32"}, {"size": "32"}]}}}}}, {"name": "ConstantFolding/split_160-folded-22", "op": "Const", "attr": {"dtype": {"type": "DT_FLOAT"}, "value": {"tensor": {"dtype": "DT_FLOAT", "tensorShape": {"dim": [{"size": "3"}, {"size": "3"}, {"size": "32"}, {"size": "32"}]}}}}}, {"name": "ConstantFolding/split_160-folded-23", "op": "Const", "attr": {"dtype": {"type": "DT_FLOAT"}, "value": {"tensor": {"dtype": "DT_FLOAT", "tensorShape": {"dim": [{"size": "3"}, {"size": "3"}, {"size": "32"}, {"size": "32"}]}}}}}, {"name": "ConstantFolding/split_160-folded-24", "op": "Const", "attr": {"dtype": {"type": "DT_FLOAT"}, "value": {"tensor": {"dtype": "DT_FLOAT", "tensorShape": {"dim": [{"size": "3"}, {"size": "3"}, {"size": "32"}, {"size": "32"}]}}}}}, {"name": "ConstantFolding/split_160-folded-25", "op": "Const", "attr": {"dtype": {"type": "DT_FLOAT"}, "value": {"tensor": {"dtype": "DT_FLOAT", "tensorShape": {"dim": [{"size": "3"}, {"size": "3"}, {"size": "32"}, {"size": "32"}]}}}}}, {"name": "ConstantFolding/split_160-folded-26", "op": "Const", "attr": {"dtype": {"type": "DT_FLOAT"}, "value": {"tensor": {"dtype": "DT_FLOAT", "tensorShape": {"dim": [{"size": "3"}, {"size": "3"}, {"size": "32"}, {"size": "32"}]}}}}}, {"name": "ConstantFolding/split_160-folded-27", "op": "Const", "attr": {"value": {"tensor": {"dtype": "DT_FLOAT", "tensorShape": {"dim": [{"size": "3"}, {"size": "3"}, {"size": "32"}, {"size": "32"}]}}}, "dtype": {"type": "DT_FLOAT"}}}, {"name": "ConstantFolding/split_160-folded-28", "op": "Const", "attr": {"value": {"tensor": {"dtype": "DT_FLOAT", "tensorShape": {"dim": [{"size": "3"}, {"size": "3"}, {"size": "32"}, {"size": "32"}]}}}, "dtype": {"type": "DT_FLOAT"}}}, {"name": "ConstantFolding/split_160-folded-29", "op": "Const", "attr": {"value": {"tensor": {"dtype": "DT_FLOAT", "tensorShape": {"dim": [{"size": "3"}, {"size": "3"}, {"size": "32"}, {"size": "32"}]}}}, "dtype": {"type": "DT_FLOAT"}}}, {"name": "ConstantFolding/split_160-folded-30", "op": "Const", "attr": {"value": {"tensor": {"dtype": "DT_FLOAT", "tensorShape": {"dim": [{"size": "3"}, {"size": "3"}, {"size": "32"}, {"size": "32"}]}}}, "dtype": {"type": "DT_FLOAT"}}}, {"name": "split_161/split_dim", "op": "Const", "attr": {"value": {"tensor": {"dtype": "DT_INT32", "tensorShape": {}}}, "dtype": {"type": "DT_INT32"}}}, {"name": "split_158", "op": "Const", "attr": {"dtype": {"type": "DT_FLOAT"}, "value": {"tensor": {"dtype": "DT_FLOAT", "tensorShape": {"dim": [{"size": "1"}, {"size": "1"}, {"size": "1024"}, {"size": "1024"}]}}}}}, {"name": "ExpandDims_239", "op": "Const", "attr": {"dtype": {"type": "DT_FLOAT"}, "value": {"tensor": {"dtype": "DT_FLOAT", "tensorShape": {"dim": [{"size": "1"}, {"size": "1024"}, {"size": "1"}, {"size": "1"}]}}}}}, {"name": "Const_186", "op": "Const", "attr": {"dtype": {"type": "DT_INT32"}, "value": {"tensor": {"dtype": "DT_INT32", "tensorShape": {"dim": [{"size": "4"}, {"size": "2"}]}}}}}, {"name": "ConstantFolding/split_160-folded-31", "op": "Const", "attr": {"dtype": {"type": "DT_FLOAT"}, "value": {"tensor": {"dtype": "DT_FLOAT", "tensorShape": {"dim": [{"size": "3"}, {"size": "3"}, {"size": "32"}, {"size": "32"}]}}}}}, {"name": "concat_80/axis", "op": "Const", "attr": {"value": {"tensor": {"dtype": "DT_INT32", "tensorShape": {}}}, "dtype": {"type": "DT_INT32"}}}, {"name": "ExpandDims_242", "op": "Const", "attr": {"dtype": {"type": "DT_FLOAT"}, "value": {"tensor": {"dtype": "DT_FLOAT", "tensorShape": {"dim": [{"size": "1"}, {"size": "1024"}, {"size": "1"}, {"size": "1"}]}}}}}, {"name": "split_162", "op": "Const", "attr": {"value": {"tensor": {"dtype": "DT_FLOAT", "tensorShape": {"dim": [{"size": "1"}, {"size": "1"}, {"size": "1024"}, {"size": "1024"}]}}}, "dtype": {"type": "DT_FLOAT"}}}, {"name": "ExpandDims_245", "op": "Const", "attr": {"value": {"tensor": {"dtype": "DT_FLOAT", "tensorShape": {"dim": [{"size": "1"}, {"size": "1024"}, {"size": "1"}, {"size": "1"}]}}}, "dtype": {"type": "DT_FLOAT"}}}, {"name": "ConstantFolding/split_154-folded-0", "op": "Const", "attr": {"dtype": {"type": "DT_FLOAT"}, "value": {"tensor": {"dtype": "DT_FLOAT", "tensorShape": {"dim": [{"size": "3"}, {"size": "3"}, {"size": "32"}, {"size": "32"}]}}}}}, {"name": "ConstantFolding/split_154-folded-1", "op": "Const", "attr": {"dtype": {"type": "DT_FLOAT"}, "value": {"tensor": {"dtype": "DT_FLOAT", "tensorShape": {"dim": [{"size": "3"}, {"size": "3"}, {"size": "32"}, {"size": "32"}]}}}}}, {"name": "ConstantFolding/split_154-folded-2", "op": "Const", "attr": {"dtype": {"type": "DT_FLOAT"}, "value": {"tensor": {"dtype": "DT_FLOAT", "tensorShape": {"dim": [{"size": "3"}, {"size": "3"}, {"size": "32"}, {"size": "32"}]}}}}}, {"name": "ConstantFolding/split_154-folded-3", "op": "Const", "attr": {"value": {"tensor": {"dtype": "DT_FLOAT", "tensorShape": {"dim": [{"size": "3"}, {"size": "3"}, {"size": "32"}, {"size": "32"}]}}}, "dtype": {"type": "DT_FLOAT"}}}, {"name": "ConstantFolding/split_154-folded-4", "op": "Const", "attr": {"dtype": {"type": "DT_FLOAT"}, "value": {"tensor": {"dtype": "DT_FLOAT", "tensorShape": {"dim": [{"size": "3"}, {"size": "3"}, {"size": "32"}, {"size": "32"}]}}}}}, {"name": "ConstantFolding/split_154-folded-5", "op": "Const", "attr": {"value": {"tensor": {"dtype": "DT_FLOAT", "tensorShape": {"dim": [{"size": "3"}, {"size": "3"}, {"size": "32"}, {"size": "32"}]}}}, "dtype": {"type": "DT_FLOAT"}}}, {"name": "ConstantFolding/split_154-folded-6", "op": "Const", "attr": {"value": {"tensor": {"dtype": "DT_FLOAT", "tensorShape": {"dim": [{"size": "3"}, {"size": "3"}, {"size": "32"}, {"size": "32"}]}}}, "dtype": {"type": "DT_FLOAT"}}}, {"name": "ConstantFolding/split_154-folded-7", "op": "Const", "attr": {"value": {"tensor": {"dtype": "DT_FLOAT", "tensorShape": {"dim": [{"size": "3"}, {"size": "3"}, {"size": "32"}, {"size": "32"}]}}}, "dtype": {"type": "DT_FLOAT"}}}, {"name": "ConstantFolding/split_154-folded-8", "op": "Const", "attr": {"dtype": {"type": "DT_FLOAT"}, "value": {"tensor": {"dtype": "DT_FLOAT", "tensorShape": {"dim": [{"size": "3"}, {"size": "3"}, {"size": "32"}, {"size": "32"}]}}}}}, {"name": "ConstantFolding/split_154-folded-9", "op": "Const", "attr": {"value": {"tensor": {"dtype": "DT_FLOAT", "tensorShape": {"dim": [{"size": "3"}, {"size": "3"}, {"size": "32"}, {"size": "32"}]}}}, "dtype": {"type": "DT_FLOAT"}}}, {"name": "ConstantFolding/split_154-folded-10", "op": "Const", "attr": {"value": {"tensor": {"dtype": "DT_FLOAT", "tensorShape": {"dim": [{"size": "3"}, {"size": "3"}, {"size": "32"}, {"size": "32"}]}}}, "dtype": {"type": "DT_FLOAT"}}}, {"name": "ConstantFolding/split_154-folded-11", "op": "Const", "attr": {"value": {"tensor": {"dtype": "DT_FLOAT", "tensorShape": {"dim": [{"size": "3"}, {"size": "3"}, {"size": "32"}, {"size": "32"}]}}}, "dtype": {"type": "DT_FLOAT"}}}, {"name": "ConstantFolding/split_154-folded-12", "op": "Const", "attr": {"value": {"tensor": {"dtype": "DT_FLOAT", "tensorShape": {"dim": [{"size": "3"}, {"size": "3"}, {"size": "32"}, {"size": "32"}]}}}, "dtype": {"type": "DT_FLOAT"}}}, {"name": "ConstantFolding/split_154-folded-13", "op": "Const", "attr": {"dtype": {"type": "DT_FLOAT"}, "value": {"tensor": {"dtype": "DT_FLOAT", "tensorShape": {"dim": [{"size": "3"}, {"size": "3"}, {"size": "32"}, {"size": "32"}]}}}}}, {"name": "ConstantFolding/split_154-folded-14", "op": "Const", "attr": {"dtype": {"type": "DT_FLOAT"}, "value": {"tensor": {"dtype": "DT_FLOAT", "tensorShape": {"dim": [{"size": "3"}, {"size": "3"}, {"size": "32"}, {"size": "32"}]}}}}}, {"name": "ConstantFolding/split_154-folded-15", "op": "Const", "attr": {"value": {"tensor": {"dtype": "DT_FLOAT", "tensorShape": {"dim": [{"size": "3"}, {"size": "3"}, {"size": "32"}, {"size": "32"}]}}}, "dtype": {"type": "DT_FLOAT"}}}, {"name": "ConstantFolding/split_154-folded-16", "op": "Const", "attr": {"dtype": {"type": "DT_FLOAT"}, "value": {"tensor": {"dtype": "DT_FLOAT", "tensorShape": {"dim": [{"size": "3"}, {"size": "3"}, {"size": "32"}, {"size": "32"}]}}}}}, {"name": "ConstantFolding/split_154-folded-17", "op": "Const", "attr": {"value": {"tensor": {"dtype": "DT_FLOAT", "tensorShape": {"dim": [{"size": "3"}, {"size": "3"}, {"size": "32"}, {"size": "32"}]}}}, "dtype": {"type": "DT_FLOAT"}}}, {"name": "ConstantFolding/split_154-folded-18", "op": "Const", "attr": {"value": {"tensor": {"dtype": "DT_FLOAT", "tensorShape": {"dim": [{"size": "3"}, {"size": "3"}, {"size": "32"}, {"size": "32"}]}}}, "dtype": {"type": "DT_FLOAT"}}}, {"name": "ConstantFolding/split_154-folded-19", "op": "Const", "attr": {"value": {"tensor": {"dtype": "DT_FLOAT", "tensorShape": {"dim": [{"size": "3"}, {"size": "3"}, {"size": "32"}, {"size": "32"}]}}}, "dtype": {"type": "DT_FLOAT"}}}, {"name": "ConstantFolding/split_154-folded-20", "op": "Const", "attr": {"dtype": {"type": "DT_FLOAT"}, "value": {"tensor": {"dtype": "DT_FLOAT", "tensorShape": {"dim": [{"size": "3"}, {"size": "3"}, {"size": "32"}, {"size": "32"}]}}}}}, {"name": "ConstantFolding/split_154-folded-21", "op": "Const", "attr": {"dtype": {"type": "DT_FLOAT"}, "value": {"tensor": {"dtype": "DT_FLOAT", "tensorShape": {"dim": [{"size": "3"}, {"size": "3"}, {"size": "32"}, {"size": "32"}]}}}}}, {"name": "ConstantFolding/split_154-folded-22", "op": "Const", "attr": {"dtype": {"type": "DT_FLOAT"}, "value": {"tensor": {"dtype": "DT_FLOAT", "tensorShape": {"dim": [{"size": "3"}, {"size": "3"}, {"size": "32"}, {"size": "32"}]}}}}}, {"name": "ConstantFolding/split_154-folded-23", "op": "Const", "attr": {"value": {"tensor": {"dtype": "DT_FLOAT", "tensorShape": {"dim": [{"size": "3"}, {"size": "3"}, {"size": "32"}, {"size": "32"}]}}}, "dtype": {"type": "DT_FLOAT"}}}, {"name": "ConstantFolding/split_154-folded-24", "op": "Const", "attr": {"dtype": {"type": "DT_FLOAT"}, "value": {"tensor": {"dtype": "DT_FLOAT", "tensorShape": {"dim": [{"size": "3"}, {"size": "3"}, {"size": "32"}, {"size": "32"}]}}}}}, {"name": "ConstantFolding/split_154-folded-25", "op": "Const", "attr": {"value": {"tensor": {"dtype": "DT_FLOAT", "tensorShape": {"dim": [{"size": "3"}, {"size": "3"}, {"size": "32"}, {"size": "32"}]}}}, "dtype": {"type": "DT_FLOAT"}}}, {"name": "ConstantFolding/split_154-folded-26", "op": "Const", "attr": {"dtype": {"type": "DT_FLOAT"}, "value": {"tensor": {"dtype": "DT_FLOAT", "tensorShape": {"dim": [{"size": "3"}, {"size": "3"}, {"size": "32"}, {"size": "32"}]}}}}}, {"name": "ConstantFolding/split_154-folded-27", "op": "Const", "attr": {"dtype": {"type": "DT_FLOAT"}, "value": {"tensor": {"dtype": "DT_FLOAT", "tensorShape": {"dim": [{"size": "3"}, {"size": "3"}, {"size": "32"}, {"size": "32"}]}}}}}, {"name": "ConstantFolding/split_154-folded-28", "op": "Const", "attr": {"value": {"tensor": {"dtype": "DT_FLOAT", "tensorShape": {"dim": [{"size": "3"}, {"size": "3"}, {"size": "32"}, {"size": "32"}]}}}, "dtype": {"type": "DT_FLOAT"}}}, {"name": "ConstantFolding/split_154-folded-29", "op": "Const", "attr": {"value": {"tensor": {"dtype": "DT_FLOAT", "tensorShape": {"dim": [{"size": "3"}, {"size": "3"}, {"size": "32"}, {"size": "32"}]}}}, "dtype": {"type": "DT_FLOAT"}}}, {"name": "ConstantFolding/split_154-folded-30", "op": "Const", "attr": {"value": {"tensor": {"dtype": "DT_FLOAT", "tensorShape": {"dim": [{"size": "3"}, {"size": "3"}, {"size": "32"}, {"size": "32"}]}}}, "dtype": {"type": "DT_FLOAT"}}}, {"name": "split_155/split_dim", "op": "Const", "attr": {"dtype": {"type": "DT_INT32"}, "value": {"tensor": {"dtype": "DT_INT32", "tensorShape": {}}}}}, {"name": "split_152", "op": "Const", "attr": {"dtype": {"type": "DT_FLOAT"}, "value": {"tensor": {"dtype": "DT_FLOAT", "tensorShape": {"dim": [{"size": "1"}, {"size": "1"}, {"size": "1024"}, {"size": "1024"}]}}}}}, {"name": "ExpandDims_230", "op": "Const", "attr": {"dtype": {"type": "DT_FLOAT"}, "value": {"tensor": {"dtype": "DT_FLOAT", "tensorShape": {"dim": [{"size": "1"}, {"size": "1024"}, {"size": "1"}, {"size": "1"}]}}}}}, {"name": "Const_179", "op": "Const", "attr": {"dtype": {"type": "DT_INT32"}, "value": {"tensor": {"dtype": "DT_INT32", "tensorShape": {"dim": [{"size": "4"}, {"size": "2"}]}}}}}, {"name": "ConstantFolding/split_154-folded-31", "op": "Const", "attr": {"dtype": {"type": "DT_FLOAT"}, "value": {"tensor": {"dtype": "DT_FLOAT", "tensorShape": {"dim": [{"size": "3"}, {"size": "3"}, {"size": "32"}, {"size": "32"}]}}}}}, {"name": "concat_77/axis", "op": "Const", "attr": {"dtype": {"type": "DT_INT32"}, "value": {"tensor": {"dtype": "DT_INT32", "tensorShape": {}}}}}, {"name": "ExpandDims_233", "op": "Const", "attr": {"dtype": {"type": "DT_FLOAT"}, "value": {"tensor": {"dtype": "DT_FLOAT", "tensorShape": {"dim": [{"size": "1"}, {"size": "1024"}, {"size": "1"}, {"size": "1"}]}}}}}, {"name": "split_156", "op": "Const", "attr": {"dtype": {"type": "DT_FLOAT"}, "value": {"tensor": {"dtype": "DT_FLOAT", "tensorShape": {"dim": [{"size": "1"}, {"size": "1"}, {"size": "1024"}, {"size": "1024"}]}}}}}, {"name": "ExpandDims_236", "op": "Const", "attr": {"dtype": {"type": "DT_FLOAT"}, "value": {"tensor": {"dtype": "DT_FLOAT", "tensorShape": {"dim": [{"size": "1"}, {"size": "1024"}, {"size": "1"}, {"size": "1"}]}}}}}, {"name": "ConstantFolding/split_148-folded-0", "op": "Const", "attr": {"dtype": {"type": "DT_FLOAT"}, "value": {"tensor": {"dtype": "DT_FLOAT", "tensorShape": {"dim": [{"size": "3"}, {"size": "3"}, {"size": "32"}, {"size": "32"}]}}}}}, {"name": "ConstantFolding/split_148-folded-1", "op": "Const", "attr": {"dtype": {"type": "DT_FLOAT"}, "value": {"tensor": {"dtype": "DT_FLOAT", "tensorShape": {"dim": [{"size": "3"}, {"size": "3"}, {"size": "32"}, {"size": "32"}]}}}}}, {"name": "ConstantFolding/split_148-folded-2", "op": "Const", "attr": {"dtype": {"type": "DT_FLOAT"}, "value": {"tensor": {"dtype": "DT_FLOAT", "tensorShape": {"dim": [{"size": "3"}, {"size": "3"}, {"size": "32"}, {"size": "32"}]}}}}}, {"name": "ConstantFolding/split_148-folded-3", "op": "Const", "attr": {"value": {"tensor": {"dtype": "DT_FLOAT", "tensorShape": {"dim": [{"size": "3"}, {"size": "3"}, {"size": "32"}, {"size": "32"}]}}}, "dtype": {"type": "DT_FLOAT"}}}, {"name": "ConstantFolding/split_148-folded-4", "op": "Const", "attr": {"dtype": {"type": "DT_FLOAT"}, "value": {"tensor": {"dtype": "DT_FLOAT", "tensorShape": {"dim": [{"size": "3"}, {"size": "3"}, {"size": "32"}, {"size": "32"}]}}}}}, {"name": "ConstantFolding/split_148-folded-5", "op": "Const", "attr": {"value": {"tensor": {"dtype": "DT_FLOAT", "tensorShape": {"dim": [{"size": "3"}, {"size": "3"}, {"size": "32"}, {"size": "32"}]}}}, "dtype": {"type": "DT_FLOAT"}}}, {"name": "ConstantFolding/split_148-folded-6", "op": "Const", "attr": {"value": {"tensor": {"dtype": "DT_FLOAT", "tensorShape": {"dim": [{"size": "3"}, {"size": "3"}, {"size": "32"}, {"size": "32"}]}}}, "dtype": {"type": "DT_FLOAT"}}}, {"name": "ConstantFolding/split_148-folded-7", "op": "Const", "attr": {"value": {"tensor": {"dtype": "DT_FLOAT", "tensorShape": {"dim": [{"size": "3"}, {"size": "3"}, {"size": "32"}, {"size": "32"}]}}}, "dtype": {"type": "DT_FLOAT"}}}, {"name": "ConstantFolding/split_148-folded-8", "op": "Const", "attr": {"dtype": {"type": "DT_FLOAT"}, "value": {"tensor": {"dtype": "DT_FLOAT", "tensorShape": {"dim": [{"size": "3"}, {"size": "3"}, {"size": "32"}, {"size": "32"}]}}}}}, {"name": "ConstantFolding/split_148-folded-9", "op": "Const", "attr": {"value": {"tensor": {"dtype": "DT_FLOAT", "tensorShape": {"dim": [{"size": "3"}, {"size": "3"}, {"size": "32"}, {"size": "32"}]}}}, "dtype": {"type": "DT_FLOAT"}}}, {"name": "ConstantFolding/split_148-folded-10", "op": "Const", "attr": {"dtype": {"type": "DT_FLOAT"}, "value": {"tensor": {"dtype": "DT_FLOAT", "tensorShape": {"dim": [{"size": "3"}, {"size": "3"}, {"size": "32"}, {"size": "32"}]}}}}}, {"name": "ConstantFolding/split_148-folded-11", "op": "Const", "attr": {"dtype": {"type": "DT_FLOAT"}, "value": {"tensor": {"dtype": "DT_FLOAT", "tensorShape": {"dim": [{"size": "3"}, {"size": "3"}, {"size": "32"}, {"size": "32"}]}}}}}, {"name": "ConstantFolding/split_148-folded-12", "op": "Const", "attr": {"value": {"tensor": {"dtype": "DT_FLOAT", "tensorShape": {"dim": [{"size": "3"}, {"size": "3"}, {"size": "32"}, {"size": "32"}]}}}, "dtype": {"type": "DT_FLOAT"}}}, {"name": "ConstantFolding/split_148-folded-13", "op": "Const", "attr": {"value": {"tensor": {"dtype": "DT_FLOAT", "tensorShape": {"dim": [{"size": "3"}, {"size": "3"}, {"size": "32"}, {"size": "32"}]}}}, "dtype": {"type": "DT_FLOAT"}}}, {"name": "ConstantFolding/split_148-folded-14", "op": "Const", "attr": {"dtype": {"type": "DT_FLOAT"}, "value": {"tensor": {"dtype": "DT_FLOAT", "tensorShape": {"dim": [{"size": "3"}, {"size": "3"}, {"size": "32"}, {"size": "32"}]}}}}}, {"name": "ConstantFolding/split_148-folded-15", "op": "Const", "attr": {"dtype": {"type": "DT_FLOAT"}, "value": {"tensor": {"dtype": "DT_FLOAT", "tensorShape": {"dim": [{"size": "3"}, {"size": "3"}, {"size": "32"}, {"size": "32"}]}}}}}, {"name": "ConstantFolding/split_148-folded-16", "op": "Const", "attr": {"dtype": {"type": "DT_FLOAT"}, "value": {"tensor": {"dtype": "DT_FLOAT", "tensorShape": {"dim": [{"size": "3"}, {"size": "3"}, {"size": "32"}, {"size": "32"}]}}}}}, {"name": "ConstantFolding/split_148-folded-17", "op": "Const", "attr": {"dtype": {"type": "DT_FLOAT"}, "value": {"tensor": {"dtype": "DT_FLOAT", "tensorShape": {"dim": [{"size": "3"}, {"size": "3"}, {"size": "32"}, {"size": "32"}]}}}}}, {"name": "ConstantFolding/split_148-folded-18", "op": "Const", "attr": {"dtype": {"type": "DT_FLOAT"}, "value": {"tensor": {"dtype": "DT_FLOAT", "tensorShape": {"dim": [{"size": "3"}, {"size": "3"}, {"size": "32"}, {"size": "32"}]}}}}}, {"name": "ConstantFolding/split_148-folded-19", "op": "Const", "attr": {"dtype": {"type": "DT_FLOAT"}, "value": {"tensor": {"dtype": "DT_FLOAT", "tensorShape": {"dim": [{"size": "3"}, {"size": "3"}, {"size": "32"}, {"size": "32"}]}}}}}, {"name": "ConstantFolding/split_148-folded-20", "op": "Const", "attr": {"dtype": {"type": "DT_FLOAT"}, "value": {"tensor": {"dtype": "DT_FLOAT", "tensorShape": {"dim": [{"size": "3"}, {"size": "3"}, {"size": "32"}, {"size": "32"}]}}}}}, {"name": "ConstantFolding/split_148-folded-21", "op": "Const", "attr": {"value": {"tensor": {"dtype": "DT_FLOAT", "tensorShape": {"dim": [{"size": "3"}, {"size": "3"}, {"size": "32"}, {"size": "32"}]}}}, "dtype": {"type": "DT_FLOAT"}}}, {"name": "ConstantFolding/split_148-folded-22", "op": "Const", "attr": {"dtype": {"type": "DT_FLOAT"}, "value": {"tensor": {"dtype": "DT_FLOAT", "tensorShape": {"dim": [{"size": "3"}, {"size": "3"}, {"size": "32"}, {"size": "32"}]}}}}}, {"name": "ConstantFolding/split_148-folded-23", "op": "Const", "attr": {"value": {"tensor": {"dtype": "DT_FLOAT", "tensorShape": {"dim": [{"size": "3"}, {"size": "3"}, {"size": "32"}, {"size": "32"}]}}}, "dtype": {"type": "DT_FLOAT"}}}, {"name": "ConstantFolding/split_148-folded-24", "op": "Const", "attr": {"value": {"tensor": {"dtype": "DT_FLOAT", "tensorShape": {"dim": [{"size": "3"}, {"size": "3"}, {"size": "32"}, {"size": "32"}]}}}, "dtype": {"type": "DT_FLOAT"}}}, {"name": "ConstantFolding/split_148-folded-25", "op": "Const", "attr": {"dtype": {"type": "DT_FLOAT"}, "value": {"tensor": {"dtype": "DT_FLOAT", "tensorShape": {"dim": [{"size": "3"}, {"size": "3"}, {"size": "32"}, {"size": "32"}]}}}}}, {"name": "ConstantFolding/split_148-folded-26", "op": "Const", "attr": {"value": {"tensor": {"dtype": "DT_FLOAT", "tensorShape": {"dim": [{"size": "3"}, {"size": "3"}, {"size": "32"}, {"size": "32"}]}}}, "dtype": {"type": "DT_FLOAT"}}}, {"name": "ConstantFolding/split_148-folded-27", "op": "Const", "attr": {"value": {"tensor": {"dtype": "DT_FLOAT", "tensorShape": {"dim": [{"size": "3"}, {"size": "3"}, {"size": "32"}, {"size": "32"}]}}}, "dtype": {"type": "DT_FLOAT"}}}, {"name": "ConstantFolding/split_148-folded-28", "op": "Const", "attr": {"value": {"tensor": {"dtype": "DT_FLOAT", "tensorShape": {"dim": [{"size": "3"}, {"size": "3"}, {"size": "32"}, {"size": "32"}]}}}, "dtype": {"type": "DT_FLOAT"}}}, {"name": "ConstantFolding/split_148-folded-29", "op": "Const", "attr": {"value": {"tensor": {"dtype": "DT_FLOAT", "tensorShape": {"dim": [{"size": "3"}, {"size": "3"}, {"size": "32"}, {"size": "32"}]}}}, "dtype": {"type": "DT_FLOAT"}}}, {"name": "ConstantFolding/split_148-folded-30", "op": "Const", "attr": {"dtype": {"type": "DT_FLOAT"}, "value": {"tensor": {"dtype": "DT_FLOAT", "tensorShape": {"dim": [{"size": "3"}, {"size": "3"}, {"size": "32"}, {"size": "32"}]}}}}}, {"name": "split_149/split_dim", "op": "Const", "attr": {"value": {"tensor": {"dtype": "DT_INT32", "tensorShape": {}}}, "dtype": {"type": "DT_INT32"}}}, {"name": "split_146", "op": "Const", "attr": {"value": {"tensor": {"dtype": "DT_FLOAT", "tensorShape": {"dim": [{"size": "1"}, {"size": "1"}, {"size": "1024"}, {"size": "1024"}]}}}, "dtype": {"type": "DT_FLOAT"}}}, {"name": "ExpandDims_221", "op": "Const", "attr": {"value": {"tensor": {"dtype": "DT_FLOAT", "tensorShape": {"dim": [{"size": "1"}, {"size": "1024"}, {"size": "1"}, {"size": "1"}]}}}, "dtype": {"type": "DT_FLOAT"}}}, {"name": "Const_172", "op": "Const", "attr": {"dtype": {"type": "DT_INT32"}, "value": {"tensor": {"dtype": "DT_INT32", "tensorShape": {"dim": [{"size": "4"}, {"size": "2"}]}}}}}, {"name": "ConstantFolding/split_148-folded-31", "op": "Const", "attr": {"value": {"tensor": {"dtype": "DT_FLOAT", "tensorShape": {"dim": [{"size": "3"}, {"size": "3"}, {"size": "32"}, {"size": "32"}]}}}, "dtype": {"type": "DT_FLOAT"}}}, {"name": "concat_74/axis", "op": "Const", "attr": {"dtype": {"type": "DT_INT32"}, "value": {"tensor": {"dtype": "DT_INT32", "tensorShape": {}}}}}, {"name": "ExpandDims_224", "op": "Const", "attr": {"dtype": {"type": "DT_FLOAT"}, "value": {"tensor": {"dtype": "DT_FLOAT", "tensorShape": {"dim": [{"size": "1"}, {"size": "1024"}, {"size": "1"}, {"size": "1"}]}}}}}, {"name": "split_150", "op": "Const", "attr": {"dtype": {"type": "DT_FLOAT"}, "value": {"tensor": {"dtype": "DT_FLOAT", "tensorShape": {"dim": [{"size": "1"}, {"size": "1"}, {"size": "1024"}, {"size": "1024"}]}}}}}, {"name": "ExpandDims_227", "op": "Const", "attr": {"dtype": {"type": "DT_FLOAT"}, "value": {"tensor": {"dtype": "DT_FLOAT", "tensorShape": {"dim": [{"size": "1"}, {"size": "1024"}, {"size": "1"}, {"size": "1"}]}}}}}, {"name": "ConstantFolding/split_142-folded-0", "op": "Const", "attr": {"value": {"tensor": {"dtype": "DT_FLOAT", "tensorShape": {"dim": [{"size": "3"}, {"size": "3"}, {"size": "32"}, {"size": "32"}]}}}, "dtype": {"type": "DT_FLOAT"}}}, {"name": "ConstantFolding/split_142-folded-1", "op": "Const", "attr": {"dtype": {"type": "DT_FLOAT"}, "value": {"tensor": {"dtype": "DT_FLOAT", "tensorShape": {"dim": [{"size": "3"}, {"size": "3"}, {"size": "32"}, {"size": "32"}]}}}}}, {"name": "ConstantFolding/split_142-folded-2", "op": "Const", "attr": {"dtype": {"type": "DT_FLOAT"}, "value": {"tensor": {"dtype": "DT_FLOAT", "tensorShape": {"dim": [{"size": "3"}, {"size": "3"}, {"size": "32"}, {"size": "32"}]}}}}}, {"name": "ConstantFolding/split_142-folded-3", "op": "Const", "attr": {"dtype": {"type": "DT_FLOAT"}, "value": {"tensor": {"dtype": "DT_FLOAT", "tensorShape": {"dim": [{"size": "3"}, {"size": "3"}, {"size": "32"}, {"size": "32"}]}}}}}, {"name": "ConstantFolding/split_142-folded-4", "op": "Const", "attr": {"dtype": {"type": "DT_FLOAT"}, "value": {"tensor": {"dtype": "DT_FLOAT", "tensorShape": {"dim": [{"size": "3"}, {"size": "3"}, {"size": "32"}, {"size": "32"}]}}}}}, {"name": "ConstantFolding/split_142-folded-5", "op": "Const", "attr": {"dtype": {"type": "DT_FLOAT"}, "value": {"tensor": {"dtype": "DT_FLOAT", "tensorShape": {"dim": [{"size": "3"}, {"size": "3"}, {"size": "32"}, {"size": "32"}]}}}}}, {"name": "ConstantFolding/split_142-folded-6", "op": "Const", "attr": {"value": {"tensor": {"dtype": "DT_FLOAT", "tensorShape": {"dim": [{"size": "3"}, {"size": "3"}, {"size": "32"}, {"size": "32"}]}}}, "dtype": {"type": "DT_FLOAT"}}}, {"name": "ConstantFolding/split_142-folded-7", "op": "Const", "attr": {"value": {"tensor": {"dtype": "DT_FLOAT", "tensorShape": {"dim": [{"size": "3"}, {"size": "3"}, {"size": "32"}, {"size": "32"}]}}}, "dtype": {"type": "DT_FLOAT"}}}, {"name": "ConstantFolding/split_142-folded-8", "op": "Const", "attr": {"dtype": {"type": "DT_FLOAT"}, "value": {"tensor": {"dtype": "DT_FLOAT", "tensorShape": {"dim": [{"size": "3"}, {"size": "3"}, {"size": "32"}, {"size": "32"}]}}}}}, {"name": "ConstantFolding/split_142-folded-9", "op": "Const", "attr": {"value": {"tensor": {"dtype": "DT_FLOAT", "tensorShape": {"dim": [{"size": "3"}, {"size": "3"}, {"size": "32"}, {"size": "32"}]}}}, "dtype": {"type": "DT_FLOAT"}}}, {"name": "ConstantFolding/split_142-folded-10", "op": "Const", "attr": {"dtype": {"type": "DT_FLOAT"}, "value": {"tensor": {"dtype": "DT_FLOAT", "tensorShape": {"dim": [{"size": "3"}, {"size": "3"}, {"size": "32"}, {"size": "32"}]}}}}}, {"name": "ConstantFolding/split_142-folded-11", "op": "Const", "attr": {"value": {"tensor": {"dtype": "DT_FLOAT", "tensorShape": {"dim": [{"size": "3"}, {"size": "3"}, {"size": "32"}, {"size": "32"}]}}}, "dtype": {"type": "DT_FLOAT"}}}, {"name": "ConstantFolding/split_142-folded-12", "op": "Const", "attr": {"dtype": {"type": "DT_FLOAT"}, "value": {"tensor": {"dtype": "DT_FLOAT", "tensorShape": {"dim": [{"size": "3"}, {"size": "3"}, {"size": "32"}, {"size": "32"}]}}}}}, {"name": "ConstantFolding/split_142-folded-13", "op": "Const", "attr": {"value": {"tensor": {"dtype": "DT_FLOAT", "tensorShape": {"dim": [{"size": "3"}, {"size": "3"}, {"size": "32"}, {"size": "32"}]}}}, "dtype": {"type": "DT_FLOAT"}}}, {"name": "ConstantFolding/split_142-folded-14", "op": "Const", "attr": {"dtype": {"type": "DT_FLOAT"}, "value": {"tensor": {"dtype": "DT_FLOAT", "tensorShape": {"dim": [{"size": "3"}, {"size": "3"}, {"size": "32"}, {"size": "32"}]}}}}}, {"name": "ConstantFolding/split_142-folded-15", "op": "Const", "attr": {"dtype": {"type": "DT_FLOAT"}, "value": {"tensor": {"dtype": "DT_FLOAT", "tensorShape": {"dim": [{"size": "3"}, {"size": "3"}, {"size": "32"}, {"size": "32"}]}}}}}, {"name": "ConstantFolding/split_142-folded-16", "op": "Const", "attr": {"dtype": {"type": "DT_FLOAT"}, "value": {"tensor": {"dtype": "DT_FLOAT", "tensorShape": {"dim": [{"size": "3"}, {"size": "3"}, {"size": "32"}, {"size": "32"}]}}}}}, {"name": "ConstantFolding/split_142-folded-17", "op": "Const", "attr": {"dtype": {"type": "DT_FLOAT"}, "value": {"tensor": {"dtype": "DT_FLOAT", "tensorShape": {"dim": [{"size": "3"}, {"size": "3"}, {"size": "32"}, {"size": "32"}]}}}}}, {"name": "ConstantFolding/split_142-folded-18", "op": "Const", "attr": {"value": {"tensor": {"dtype": "DT_FLOAT", "tensorShape": {"dim": [{"size": "3"}, {"size": "3"}, {"size": "32"}, {"size": "32"}]}}}, "dtype": {"type": "DT_FLOAT"}}}, {"name": "ConstantFolding/split_142-folded-19", "op": "Const", "attr": {"value": {"tensor": {"dtype": "DT_FLOAT", "tensorShape": {"dim": [{"size": "3"}, {"size": "3"}, {"size": "32"}, {"size": "32"}]}}}, "dtype": {"type": "DT_FLOAT"}}}, {"name": "ConstantFolding/split_142-folded-20", "op": "Const", "attr": {"dtype": {"type": "DT_FLOAT"}, "value": {"tensor": {"dtype": "DT_FLOAT", "tensorShape": {"dim": [{"size": "3"}, {"size": "3"}, {"size": "32"}, {"size": "32"}]}}}}}, {"name": "ConstantFolding/split_142-folded-21", "op": "Const", "attr": {"value": {"tensor": {"dtype": "DT_FLOAT", "tensorShape": {"dim": [{"size": "3"}, {"size": "3"}, {"size": "32"}, {"size": "32"}]}}}, "dtype": {"type": "DT_FLOAT"}}}, {"name": "ConstantFolding/split_142-folded-22", "op": "Const", "attr": {"dtype": {"type": "DT_FLOAT"}, "value": {"tensor": {"dtype": "DT_FLOAT", "tensorShape": {"dim": [{"size": "3"}, {"size": "3"}, {"size": "32"}, {"size": "32"}]}}}}}, {"name": "ConstantFolding/split_142-folded-23", "op": "Const", "attr": {"dtype": {"type": "DT_FLOAT"}, "value": {"tensor": {"dtype": "DT_FLOAT", "tensorShape": {"dim": [{"size": "3"}, {"size": "3"}, {"size": "32"}, {"size": "32"}]}}}}}, {"name": "ConstantFolding/split_142-folded-24", "op": "Const", "attr": {"dtype": {"type": "DT_FLOAT"}, "value": {"tensor": {"dtype": "DT_FLOAT", "tensorShape": {"dim": [{"size": "3"}, {"size": "3"}, {"size": "32"}, {"size": "32"}]}}}}}, {"name": "ConstantFolding/split_142-folded-25", "op": "Const", "attr": {"value": {"tensor": {"dtype": "DT_FLOAT", "tensorShape": {"dim": [{"size": "3"}, {"size": "3"}, {"size": "32"}, {"size": "32"}]}}}, "dtype": {"type": "DT_FLOAT"}}}, {"name": "ConstantFolding/split_142-folded-26", "op": "Const", "attr": {"dtype": {"type": "DT_FLOAT"}, "value": {"tensor": {"dtype": "DT_FLOAT", "tensorShape": {"dim": [{"size": "3"}, {"size": "3"}, {"size": "32"}, {"size": "32"}]}}}}}, {"name": "ConstantFolding/split_142-folded-27", "op": "Const", "attr": {"value": {"tensor": {"dtype": "DT_FLOAT", "tensorShape": {"dim": [{"size": "3"}, {"size": "3"}, {"size": "32"}, {"size": "32"}]}}}, "dtype": {"type": "DT_FLOAT"}}}, {"name": "ConstantFolding/split_142-folded-28", "op": "Const", "attr": {"dtype": {"type": "DT_FLOAT"}, "value": {"tensor": {"dtype": "DT_FLOAT", "tensorShape": {"dim": [{"size": "3"}, {"size": "3"}, {"size": "32"}, {"size": "32"}]}}}}}, {"name": "ConstantFolding/split_142-folded-29", "op": "Const", "attr": {"value": {"tensor": {"dtype": "DT_FLOAT", "tensorShape": {"dim": [{"size": "3"}, {"size": "3"}, {"size": "32"}, {"size": "32"}]}}}, "dtype": {"type": "DT_FLOAT"}}}, {"name": "ConstantFolding/split_142-folded-30", "op": "Const", "attr": {"dtype": {"type": "DT_FLOAT"}, "value": {"tensor": {"dtype": "DT_FLOAT", "tensorShape": {"dim": [{"size": "3"}, {"size": "3"}, {"size": "32"}, {"size": "32"}]}}}}}, {"name": "split_143/split_dim", "op": "Const", "attr": {"dtype": {"type": "DT_INT32"}, "value": {"tensor": {"dtype": "DT_INT32", "tensorShape": {}}}}}, {"name": "split_140", "op": "Const", "attr": {"dtype": {"type": "DT_FLOAT"}, "value": {"tensor": {"dtype": "DT_FLOAT", "tensorShape": {"dim": [{"size": "1"}, {"size": "1"}, {"size": "1024"}, {"size": "1024"}]}}}}}, {"name": "ExpandDims_212", "op": "Const", "attr": {"value": {"tensor": {"dtype": "DT_FLOAT", "tensorShape": {"dim": [{"size": "1"}, {"size": "1024"}, {"size": "1"}, {"size": "1"}]}}}, "dtype": {"type": "DT_FLOAT"}}}, {"name": "Const_165", "op": "Const", "attr": {"dtype": {"type": "DT_INT32"}, "value": {"tensor": {"dtype": "DT_INT32", "tensorShape": {"dim": [{"size": "4"}, {"size": "2"}]}}}}}, {"name": "ConstantFolding/split_142-folded-31", "op": "Const", "attr": {"dtype": {"type": "DT_FLOAT"}, "value": {"tensor": {"dtype": "DT_FLOAT", "tensorShape": {"dim": [{"size": "3"}, {"size": "3"}, {"size": "32"}, {"size": "32"}]}}}}}, {"name": "concat_71/axis", "op": "Const", "attr": {"dtype": {"type": "DT_INT32"}, "value": {"tensor": {"dtype": "DT_INT32", "tensorShape": {}}}}}, {"name": "ExpandDims_215", "op": "Const", "attr": {"value": {"tensor": {"dtype": "DT_FLOAT", "tensorShape": {"dim": [{"size": "1"}, {"size": "1024"}, {"size": "1"}, {"size": "1"}]}}}, "dtype": {"type": "DT_FLOAT"}}}, {"name": "split_144", "op": "Const", "attr": {"dtype": {"type": "DT_FLOAT"}, "value": {"tensor": {"dtype": "DT_FLOAT", "tensorShape": {"dim": [{"size": "1"}, {"size": "1"}, {"size": "1024"}, {"size": "1024"}]}}}}}, {"name": "ExpandDims_218", "op": "Const", "attr": {"dtype": {"type": "DT_FLOAT"}, "value": {"tensor": {"dtype": "DT_FLOAT", "tensorShape": {"dim": [{"size": "1"}, {"size": "1024"}, {"size": "1"}, {"size": "1"}]}}}}}, {"name": "ConstantFolding/split_136-folded-0", "op": "Const", "attr": {"dtype": {"type": "DT_FLOAT"}, "value": {"tensor": {"dtype": "DT_FLOAT", "tensorShape": {"dim": [{"size": "3"}, {"size": "3"}, {"size": "32"}, {"size": "32"}]}}}}}, {"name": "ConstantFolding/split_136-folded-1", "op": "Const", "attr": {"dtype": {"type": "DT_FLOAT"}, "value": {"tensor": {"dtype": "DT_FLOAT", "tensorShape": {"dim": [{"size": "3"}, {"size": "3"}, {"size": "32"}, {"size": "32"}]}}}}}, {"name": "ConstantFolding/split_136-folded-2", "op": "Const", "attr": {"dtype": {"type": "DT_FLOAT"}, "value": {"tensor": {"dtype": "DT_FLOAT", "tensorShape": {"dim": [{"size": "3"}, {"size": "3"}, {"size": "32"}, {"size": "32"}]}}}}}, {"name": "ConstantFolding/split_136-folded-3", "op": "Const", "attr": {"dtype": {"type": "DT_FLOAT"}, "value": {"tensor": {"dtype": "DT_FLOAT", "tensorShape": {"dim": [{"size": "3"}, {"size": "3"}, {"size": "32"}, {"size": "32"}]}}}}}, {"name": "ConstantFolding/split_136-folded-4", "op": "Const", "attr": {"dtype": {"type": "DT_FLOAT"}, "value": {"tensor": {"dtype": "DT_FLOAT", "tensorShape": {"dim": [{"size": "3"}, {"size": "3"}, {"size": "32"}, {"size": "32"}]}}}}}, {"name": "ConstantFolding/split_136-folded-5", "op": "Const", "attr": {"value": {"tensor": {"dtype": "DT_FLOAT", "tensorShape": {"dim": [{"size": "3"}, {"size": "3"}, {"size": "32"}, {"size": "32"}]}}}, "dtype": {"type": "DT_FLOAT"}}}, {"name": "ConstantFolding/split_136-folded-6", "op": "Const", "attr": {"dtype": {"type": "DT_FLOAT"}, "value": {"tensor": {"dtype": "DT_FLOAT", "tensorShape": {"dim": [{"size": "3"}, {"size": "3"}, {"size": "32"}, {"size": "32"}]}}}}}, {"name": "ConstantFolding/split_136-folded-7", "op": "Const", "attr": {"value": {"tensor": {"dtype": "DT_FLOAT", "tensorShape": {"dim": [{"size": "3"}, {"size": "3"}, {"size": "32"}, {"size": "32"}]}}}, "dtype": {"type": "DT_FLOAT"}}}, {"name": "ConstantFolding/split_136-folded-8", "op": "Const", "attr": {"dtype": {"type": "DT_FLOAT"}, "value": {"tensor": {"dtype": "DT_FLOAT", "tensorShape": {"dim": [{"size": "3"}, {"size": "3"}, {"size": "32"}, {"size": "32"}]}}}}}, {"name": "ConstantFolding/split_136-folded-9", "op": "Const", "attr": {"dtype": {"type": "DT_FLOAT"}, "value": {"tensor": {"dtype": "DT_FLOAT", "tensorShape": {"dim": [{"size": "3"}, {"size": "3"}, {"size": "32"}, {"size": "32"}]}}}}}, {"name": "ConstantFolding/split_136-folded-10", "op": "Const", "attr": {"dtype": {"type": "DT_FLOAT"}, "value": {"tensor": {"dtype": "DT_FLOAT", "tensorShape": {"dim": [{"size": "3"}, {"size": "3"}, {"size": "32"}, {"size": "32"}]}}}}}, {"name": "ConstantFolding/split_136-folded-11", "op": "Const", "attr": {"value": {"tensor": {"dtype": "DT_FLOAT", "tensorShape": {"dim": [{"size": "3"}, {"size": "3"}, {"size": "32"}, {"size": "32"}]}}}, "dtype": {"type": "DT_FLOAT"}}}, {"name": "ConstantFolding/split_136-folded-12", "op": "Const", "attr": {"value": {"tensor": {"dtype": "DT_FLOAT", "tensorShape": {"dim": [{"size": "3"}, {"size": "3"}, {"size": "32"}, {"size": "32"}]}}}, "dtype": {"type": "DT_FLOAT"}}}, {"name": "ConstantFolding/split_136-folded-13", "op": "Const", "attr": {"dtype": {"type": "DT_FLOAT"}, "value": {"tensor": {"dtype": "DT_FLOAT", "tensorShape": {"dim": [{"size": "3"}, {"size": "3"}, {"size": "32"}, {"size": "32"}]}}}}}, {"name": "ConstantFolding/split_136-folded-14", "op": "Const", "attr": {"value": {"tensor": {"dtype": "DT_FLOAT", "tensorShape": {"dim": [{"size": "3"}, {"size": "3"}, {"size": "32"}, {"size": "32"}]}}}, "dtype": {"type": "DT_FLOAT"}}}, {"name": "ConstantFolding/split_136-folded-15", "op": "Const", "attr": {"dtype": {"type": "DT_FLOAT"}, "value": {"tensor": {"dtype": "DT_FLOAT", "tensorShape": {"dim": [{"size": "3"}, {"size": "3"}, {"size": "32"}, {"size": "32"}]}}}}}, {"name": "ConstantFolding/split_136-folded-16", "op": "Const", "attr": {"value": {"tensor": {"dtype": "DT_FLOAT", "tensorShape": {"dim": [{"size": "3"}, {"size": "3"}, {"size": "32"}, {"size": "32"}]}}}, "dtype": {"type": "DT_FLOAT"}}}, {"name": "ConstantFolding/split_136-folded-17", "op": "Const", "attr": {"dtype": {"type": "DT_FLOAT"}, "value": {"tensor": {"dtype": "DT_FLOAT", "tensorShape": {"dim": [{"size": "3"}, {"size": "3"}, {"size": "32"}, {"size": "32"}]}}}}}, {"name": "ConstantFolding/split_136-folded-18", "op": "Const", "attr": {"dtype": {"type": "DT_FLOAT"}, "value": {"tensor": {"dtype": "DT_FLOAT", "tensorShape": {"dim": [{"size": "3"}, {"size": "3"}, {"size": "32"}, {"size": "32"}]}}}}}, {"name": "ConstantFolding/split_136-folded-19", "op": "Const", "attr": {"value": {"tensor": {"dtype": "DT_FLOAT", "tensorShape": {"dim": [{"size": "3"}, {"size": "3"}, {"size": "32"}, {"size": "32"}]}}}, "dtype": {"type": "DT_FLOAT"}}}, {"name": "ConstantFolding/split_136-folded-20", "op": "Const", "attr": {"value": {"tensor": {"dtype": "DT_FLOAT", "tensorShape": {"dim": [{"size": "3"}, {"size": "3"}, {"size": "32"}, {"size": "32"}]}}}, "dtype": {"type": "DT_FLOAT"}}}, {"name": "ConstantFolding/split_136-folded-21", "op": "Const", "attr": {"value": {"tensor": {"dtype": "DT_FLOAT", "tensorShape": {"dim": [{"size": "3"}, {"size": "3"}, {"size": "32"}, {"size": "32"}]}}}, "dtype": {"type": "DT_FLOAT"}}}, {"name": "ConstantFolding/split_136-folded-22", "op": "Const", "attr": {"dtype": {"type": "DT_FLOAT"}, "value": {"tensor": {"dtype": "DT_FLOAT", "tensorShape": {"dim": [{"size": "3"}, {"size": "3"}, {"size": "32"}, {"size": "32"}]}}}}}, {"name": "ConstantFolding/split_136-folded-23", "op": "Const", "attr": {"dtype": {"type": "DT_FLOAT"}, "value": {"tensor": {"dtype": "DT_FLOAT", "tensorShape": {"dim": [{"size": "3"}, {"size": "3"}, {"size": "32"}, {"size": "32"}]}}}}}, {"name": "ConstantFolding/split_136-folded-24", "op": "Const", "attr": {"value": {"tensor": {"dtype": "DT_FLOAT", "tensorShape": {"dim": [{"size": "3"}, {"size": "3"}, {"size": "32"}, {"size": "32"}]}}}, "dtype": {"type": "DT_FLOAT"}}}, {"name": "ConstantFolding/split_136-folded-25", "op": "Const", "attr": {"dtype": {"type": "DT_FLOAT"}, "value": {"tensor": {"dtype": "DT_FLOAT", "tensorShape": {"dim": [{"size": "3"}, {"size": "3"}, {"size": "32"}, {"size": "32"}]}}}}}, {"name": "ConstantFolding/split_136-folded-26", "op": "Const", "attr": {"value": {"tensor": {"dtype": "DT_FLOAT", "tensorShape": {"dim": [{"size": "3"}, {"size": "3"}, {"size": "32"}, {"size": "32"}]}}}, "dtype": {"type": "DT_FLOAT"}}}, {"name": "ConstantFolding/split_136-folded-27", "op": "Const", "attr": {"dtype": {"type": "DT_FLOAT"}, "value": {"tensor": {"dtype": "DT_FLOAT", "tensorShape": {"dim": [{"size": "3"}, {"size": "3"}, {"size": "32"}, {"size": "32"}]}}}}}, {"name": "ConstantFolding/split_136-folded-28", "op": "Const", "attr": {"dtype": {"type": "DT_FLOAT"}, "value": {"tensor": {"dtype": "DT_FLOAT", "tensorShape": {"dim": [{"size": "3"}, {"size": "3"}, {"size": "32"}, {"size": "32"}]}}}}}, {"name": "ConstantFolding/split_136-folded-29", "op": "Const", "attr": {"dtype": {"type": "DT_FLOAT"}, "value": {"tensor": {"dtype": "DT_FLOAT", "tensorShape": {"dim": [{"size": "3"}, {"size": "3"}, {"size": "32"}, {"size": "32"}]}}}}}, {"name": "ConstantFolding/split_136-folded-30", "op": "Const", "attr": {"value": {"tensor": {"dtype": "DT_FLOAT", "tensorShape": {"dim": [{"size": "3"}, {"size": "3"}, {"size": "32"}, {"size": "32"}]}}}, "dtype": {"type": "DT_FLOAT"}}}, {"name": "split_137/split_dim", "op": "Const", "attr": {"dtype": {"type": "DT_INT32"}, "value": {"tensor": {"dtype": "DT_INT32", "tensorShape": {}}}}}, {"name": "split_134", "op": "Const", "attr": {"dtype": {"type": "DT_FLOAT"}, "value": {"tensor": {"dtype": "DT_FLOAT", "tensorShape": {"dim": [{"size": "1"}, {"size": "1"}, {"size": "1024"}, {"size": "1024"}]}}}}}, {"name": "ExpandDims_203", "op": "Const", "attr": {"dtype": {"type": "DT_FLOAT"}, "value": {"tensor": {"dtype": "DT_FLOAT", "tensorShape": {"dim": [{"size": "1"}, {"size": "1024"}, {"size": "1"}, {"size": "1"}]}}}}}, {"name": "Const_158", "op": "Const", "attr": {"dtype": {"type": "DT_INT32"}, "value": {"tensor": {"dtype": "DT_INT32", "tensorShape": {"dim": [{"size": "4"}, {"size": "2"}]}}}}}, {"name": "ConstantFolding/split_136-folded-31", "op": "Const", "attr": {"dtype": {"type": "DT_FLOAT"}, "value": {"tensor": {"dtype": "DT_FLOAT", "tensorShape": {"dim": [{"size": "3"}, {"size": "3"}, {"size": "32"}, {"size": "32"}]}}}}}, {"name": "concat_68/axis", "op": "Const", "attr": {"dtype": {"type": "DT_INT32"}, "value": {"tensor": {"dtype": "DT_INT32", "tensorShape": {}}}}}, {"name": "ExpandDims_206", "op": "Const", "attr": {"dtype": {"type": "DT_FLOAT"}, "value": {"tensor": {"dtype": "DT_FLOAT", "tensorShape": {"dim": [{"size": "1"}, {"size": "1024"}, {"size": "1"}, {"size": "1"}]}}}}}, {"name": "split_138", "op": "Const", "attr": {"dtype": {"type": "DT_FLOAT"}, "value": {"tensor": {"dtype": "DT_FLOAT", "tensorShape": {"dim": [{"size": "1"}, {"size": "1"}, {"size": "1024"}, {"size": "1024"}]}}}}}, {"name": "ExpandDims_209", "op": "Const", "attr": {"dtype": {"type": "DT_FLOAT"}, "value": {"tensor": {"dtype": "DT_FLOAT", "tensorShape": {"dim": [{"size": "1"}, {"size": "1024"}, {"size": "1"}, {"size": "1"}]}}}}}, {"name": "ConstantFolding/split_130-folded-0", "op": "Const", "attr": {"value": {"tensor": {"dtype": "DT_FLOAT", "tensorShape": {"dim": [{"size": "3"}, {"size": "3"}, {"size": "32"}, {"size": "32"}]}}}, "dtype": {"type": "DT_FLOAT"}}}, {"name": "ConstantFolding/split_130-folded-1", "op": "Const", "attr": {"value": {"tensor": {"dtype": "DT_FLOAT", "tensorShape": {"dim": [{"size": "3"}, {"size": "3"}, {"size": "32"}, {"size": "32"}]}}}, "dtype": {"type": "DT_FLOAT"}}}, {"name": "ConstantFolding/split_130-folded-2", "op": "Const", "attr": {"dtype": {"type": "DT_FLOAT"}, "value": {"tensor": {"dtype": "DT_FLOAT", "tensorShape": {"dim": [{"size": "3"}, {"size": "3"}, {"size": "32"}, {"size": "32"}]}}}}}, {"name": "ConstantFolding/split_130-folded-3", "op": "Const", "attr": {"dtype": {"type": "DT_FLOAT"}, "value": {"tensor": {"dtype": "DT_FLOAT", "tensorShape": {"dim": [{"size": "3"}, {"size": "3"}, {"size": "32"}, {"size": "32"}]}}}}}, {"name": "ConstantFolding/split_130-folded-4", "op": "Const", "attr": {"dtype": {"type": "DT_FLOAT"}, "value": {"tensor": {"dtype": "DT_FLOAT", "tensorShape": {"dim": [{"size": "3"}, {"size": "3"}, {"size": "32"}, {"size": "32"}]}}}}}, {"name": "ConstantFolding/split_130-folded-5", "op": "Const", "attr": {"value": {"tensor": {"dtype": "DT_FLOAT", "tensorShape": {"dim": [{"size": "3"}, {"size": "3"}, {"size": "32"}, {"size": "32"}]}}}, "dtype": {"type": "DT_FLOAT"}}}, {"name": "ConstantFolding/split_130-folded-6", "op": "Const", "attr": {"value": {"tensor": {"dtype": "DT_FLOAT", "tensorShape": {"dim": [{"size": "3"}, {"size": "3"}, {"size": "32"}, {"size": "32"}]}}}, "dtype": {"type": "DT_FLOAT"}}}, {"name": "ConstantFolding/split_130-folded-7", "op": "Const", "attr": {"dtype": {"type": "DT_FLOAT"}, "value": {"tensor": {"dtype": "DT_FLOAT", "tensorShape": {"dim": [{"size": "3"}, {"size": "3"}, {"size": "32"}, {"size": "32"}]}}}}}, {"name": "ConstantFolding/split_130-folded-8", "op": "Const", "attr": {"dtype": {"type": "DT_FLOAT"}, "value": {"tensor": {"dtype": "DT_FLOAT", "tensorShape": {"dim": [{"size": "3"}, {"size": "3"}, {"size": "32"}, {"size": "32"}]}}}}}, {"name": "ConstantFolding/split_130-folded-9", "op": "Const", "attr": {"dtype": {"type": "DT_FLOAT"}, "value": {"tensor": {"dtype": "DT_FLOAT", "tensorShape": {"dim": [{"size": "3"}, {"size": "3"}, {"size": "32"}, {"size": "32"}]}}}}}, {"name": "ConstantFolding/split_130-folded-10", "op": "Const", "attr": {"dtype": {"type": "DT_FLOAT"}, "value": {"tensor": {"dtype": "DT_FLOAT", "tensorShape": {"dim": [{"size": "3"}, {"size": "3"}, {"size": "32"}, {"size": "32"}]}}}}}, {"name": "ConstantFolding/split_130-folded-11", "op": "Const", "attr": {"dtype": {"type": "DT_FLOAT"}, "value": {"tensor": {"dtype": "DT_FLOAT", "tensorShape": {"dim": [{"size": "3"}, {"size": "3"}, {"size": "32"}, {"size": "32"}]}}}}}, {"name": "ConstantFolding/split_130-folded-12", "op": "Const", "attr": {"dtype": {"type": "DT_FLOAT"}, "value": {"tensor": {"dtype": "DT_FLOAT", "tensorShape": {"dim": [{"size": "3"}, {"size": "3"}, {"size": "32"}, {"size": "32"}]}}}}}, {"name": "ConstantFolding/split_130-folded-13", "op": "Const", "attr": {"dtype": {"type": "DT_FLOAT"}, "value": {"tensor": {"dtype": "DT_FLOAT", "tensorShape": {"dim": [{"size": "3"}, {"size": "3"}, {"size": "32"}, {"size": "32"}]}}}}}, {"name": "ConstantFolding/split_130-folded-14", "op": "Const", "attr": {"dtype": {"type": "DT_FLOAT"}, "value": {"tensor": {"dtype": "DT_FLOAT", "tensorShape": {"dim": [{"size": "3"}, {"size": "3"}, {"size": "32"}, {"size": "32"}]}}}}}, {"name": "ConstantFolding/split_130-folded-15", "op": "Const", "attr": {"dtype": {"type": "DT_FLOAT"}, "value": {"tensor": {"dtype": "DT_FLOAT", "tensorShape": {"dim": [{"size": "3"}, {"size": "3"}, {"size": "32"}, {"size": "32"}]}}}}}, {"name": "ConstantFolding/split_130-folded-16", "op": "Const", "attr": {"dtype": {"type": "DT_FLOAT"}, "value": {"tensor": {"dtype": "DT_FLOAT", "tensorShape": {"dim": [{"size": "3"}, {"size": "3"}, {"size": "32"}, {"size": "32"}]}}}}}, {"name": "ConstantFolding/split_130-folded-17", "op": "Const", "attr": {"dtype": {"type": "DT_FLOAT"}, "value": {"tensor": {"dtype": "DT_FLOAT", "tensorShape": {"dim": [{"size": "3"}, {"size": "3"}, {"size": "32"}, {"size": "32"}]}}}}}, {"name": "ConstantFolding/split_130-folded-18", "op": "Const", "attr": {"dtype": {"type": "DT_FLOAT"}, "value": {"tensor": {"dtype": "DT_FLOAT", "tensorShape": {"dim": [{"size": "3"}, {"size": "3"}, {"size": "32"}, {"size": "32"}]}}}}}, {"name": "ConstantFolding/split_130-folded-19", "op": "Const", "attr": {"dtype": {"type": "DT_FLOAT"}, "value": {"tensor": {"dtype": "DT_FLOAT", "tensorShape": {"dim": [{"size": "3"}, {"size": "3"}, {"size": "32"}, {"size": "32"}]}}}}}, {"name": "ConstantFolding/split_130-folded-20", "op": "Const", "attr": {"dtype": {"type": "DT_FLOAT"}, "value": {"tensor": {"dtype": "DT_FLOAT", "tensorShape": {"dim": [{"size": "3"}, {"size": "3"}, {"size": "32"}, {"size": "32"}]}}}}}, {"name": "ConstantFolding/split_130-folded-21", "op": "Const", "attr": {"dtype": {"type": "DT_FLOAT"}, "value": {"tensor": {"dtype": "DT_FLOAT", "tensorShape": {"dim": [{"size": "3"}, {"size": "3"}, {"size": "32"}, {"size": "32"}]}}}}}, {"name": "ConstantFolding/split_130-folded-22", "op": "Const", "attr": {"dtype": {"type": "DT_FLOAT"}, "value": {"tensor": {"dtype": "DT_FLOAT", "tensorShape": {"dim": [{"size": "3"}, {"size": "3"}, {"size": "32"}, {"size": "32"}]}}}}}, {"name": "ConstantFolding/split_130-folded-23", "op": "Const", "attr": {"value": {"tensor": {"dtype": "DT_FLOAT", "tensorShape": {"dim": [{"size": "3"}, {"size": "3"}, {"size": "32"}, {"size": "32"}]}}}, "dtype": {"type": "DT_FLOAT"}}}, {"name": "ConstantFolding/split_130-folded-24", "op": "Const", "attr": {"dtype": {"type": "DT_FLOAT"}, "value": {"tensor": {"dtype": "DT_FLOAT", "tensorShape": {"dim": [{"size": "3"}, {"size": "3"}, {"size": "32"}, {"size": "32"}]}}}}}, {"name": "ConstantFolding/split_130-folded-25", "op": "Const", "attr": {"value": {"tensor": {"dtype": "DT_FLOAT", "tensorShape": {"dim": [{"size": "3"}, {"size": "3"}, {"size": "32"}, {"size": "32"}]}}}, "dtype": {"type": "DT_FLOAT"}}}, {"name": "ConstantFolding/split_130-folded-26", "op": "Const", "attr": {"dtype": {"type": "DT_FLOAT"}, "value": {"tensor": {"dtype": "DT_FLOAT", "tensorShape": {"dim": [{"size": "3"}, {"size": "3"}, {"size": "32"}, {"size": "32"}]}}}}}, {"name": "ConstantFolding/split_130-folded-27", "op": "Const", "attr": {"dtype": {"type": "DT_FLOAT"}, "value": {"tensor": {"dtype": "DT_FLOAT", "tensorShape": {"dim": [{"size": "3"}, {"size": "3"}, {"size": "32"}, {"size": "32"}]}}}}}, {"name": "ConstantFolding/split_130-folded-28", "op": "Const", "attr": {"dtype": {"type": "DT_FLOAT"}, "value": {"tensor": {"dtype": "DT_FLOAT", "tensorShape": {"dim": [{"size": "3"}, {"size": "3"}, {"size": "32"}, {"size": "32"}]}}}}}, {"name": "ConstantFolding/split_130-folded-29", "op": "Const", "attr": {"value": {"tensor": {"dtype": "DT_FLOAT", "tensorShape": {"dim": [{"size": "3"}, {"size": "3"}, {"size": "32"}, {"size": "32"}]}}}, "dtype": {"type": "DT_FLOAT"}}}, {"name": "ConstantFolding/split_130-folded-30", "op": "Const", "attr": {"dtype": {"type": "DT_FLOAT"}, "value": {"tensor": {"dtype": "DT_FLOAT", "tensorShape": {"dim": [{"size": "3"}, {"size": "3"}, {"size": "32"}, {"size": "32"}]}}}}}, {"name": "split_131/split_dim", "op": "Const", "attr": {"value": {"tensor": {"dtype": "DT_INT32", "tensorShape": {}}}, "dtype": {"type": "DT_INT32"}}}, {"name": "split_128", "op": "Const", "attr": {"dtype": {"type": "DT_FLOAT"}, "value": {"tensor": {"dtype": "DT_FLOAT", "tensorShape": {"dim": [{"size": "1"}, {"size": "1"}, {"size": "1024"}, {"size": "1024"}]}}}}}, {"name": "ExpandDims_194", "op": "Const", "attr": {"value": {"tensor": {"dtype": "DT_FLOAT", "tensorShape": {"dim": [{"size": "1"}, {"size": "1024"}, {"size": "1"}, {"size": "1"}]}}}, "dtype": {"type": "DT_FLOAT"}}}, {"name": "Const_151", "op": "Const", "attr": {"dtype": {"type": "DT_INT32"}, "value": {"tensor": {"dtype": "DT_INT32", "tensorShape": {"dim": [{"size": "4"}, {"size": "2"}]}}}}}, {"name": "ConstantFolding/split_130-folded-31", "op": "Const", "attr": {"dtype": {"type": "DT_FLOAT"}, "value": {"tensor": {"dtype": "DT_FLOAT", "tensorShape": {"dim": [{"size": "3"}, {"size": "3"}, {"size": "32"}, {"size": "32"}]}}}}}, {"name": "concat_65/axis", "op": "Const", "attr": {"dtype": {"type": "DT_INT32"}, "value": {"tensor": {"dtype": "DT_INT32", "tensorShape": {}}}}}, {"name": "ExpandDims_197", "op": "Const", "attr": {"dtype": {"type": "DT_FLOAT"}, "value": {"tensor": {"dtype": "DT_FLOAT", "tensorShape": {"dim": [{"size": "1"}, {"size": "1024"}, {"size": "1"}, {"size": "1"}]}}}}}, {"name": "split_132", "op": "Const", "attr": {"dtype": {"type": "DT_FLOAT"}, "value": {"tensor": {"dtype": "DT_FLOAT", "tensorShape": {"dim": [{"size": "1"}, {"size": "1"}, {"size": "1024"}, {"size": "1024"}]}}}}}, {"name": "ExpandDims_200", "op": "Const", "attr": {"dtype": {"type": "DT_FLOAT"}, "value": {"tensor": {"dtype": "DT_FLOAT", "tensorShape": {"dim": [{"size": "1"}, {"size": "1024"}, {"size": "1"}, {"size": "1"}]}}}}}, {"name": "ConstantFolding/split_124-folded-0", "op": "Const", "attr": {"value": {"tensor": {"dtype": "DT_FLOAT", "tensorShape": {"dim": [{"size": "3"}, {"size": "3"}, {"size": "32"}, {"size": "32"}]}}}, "dtype": {"type": "DT_FLOAT"}}}, {"name": "ConstantFolding/split_124-folded-1", "op": "Const", "attr": {"dtype": {"type": "DT_FLOAT"}, "value": {"tensor": {"dtype": "DT_FLOAT", "tensorShape": {"dim": [{"size": "3"}, {"size": "3"}, {"size": "32"}, {"size": "32"}]}}}}}, {"name": "ConstantFolding/split_124-folded-2", "op": "Const", "attr": {"dtype": {"type": "DT_FLOAT"}, "value": {"tensor": {"dtype": "DT_FLOAT", "tensorShape": {"dim": [{"size": "3"}, {"size": "3"}, {"size": "32"}, {"size": "32"}]}}}}}, {"name": "ConstantFolding/split_124-folded-3", "op": "Const", "attr": {"dtype": {"type": "DT_FLOAT"}, "value": {"tensor": {"dtype": "DT_FLOAT", "tensorShape": {"dim": [{"size": "3"}, {"size": "3"}, {"size": "32"}, {"size": "32"}]}}}}}, {"name": "ConstantFolding/split_124-folded-4", "op": "Const", "attr": {"dtype": {"type": "DT_FLOAT"}, "value": {"tensor": {"dtype": "DT_FLOAT", "tensorShape": {"dim": [{"size": "3"}, {"size": "3"}, {"size": "32"}, {"size": "32"}]}}}}}, {"name": "ConstantFolding/split_124-folded-5", "op": "Const", "attr": {"value": {"tensor": {"dtype": "DT_FLOAT", "tensorShape": {"dim": [{"size": "3"}, {"size": "3"}, {"size": "32"}, {"size": "32"}]}}}, "dtype": {"type": "DT_FLOAT"}}}, {"name": "ConstantFolding/split_124-folded-6", "op": "Const", "attr": {"dtype": {"type": "DT_FLOAT"}, "value": {"tensor": {"dtype": "DT_FLOAT", "tensorShape": {"dim": [{"size": "3"}, {"size": "3"}, {"size": "32"}, {"size": "32"}]}}}}}, {"name": "ConstantFolding/split_124-folded-7", "op": "Const", "attr": {"dtype": {"type": "DT_FLOAT"}, "value": {"tensor": {"dtype": "DT_FLOAT", "tensorShape": {"dim": [{"size": "3"}, {"size": "3"}, {"size": "32"}, {"size": "32"}]}}}}}, {"name": "ConstantFolding/split_124-folded-8", "op": "Const", "attr": {"dtype": {"type": "DT_FLOAT"}, "value": {"tensor": {"dtype": "DT_FLOAT", "tensorShape": {"dim": [{"size": "3"}, {"size": "3"}, {"size": "32"}, {"size": "32"}]}}}}}, {"name": "ConstantFolding/split_124-folded-9", "op": "Const", "attr": {"dtype": {"type": "DT_FLOAT"}, "value": {"tensor": {"dtype": "DT_FLOAT", "tensorShape": {"dim": [{"size": "3"}, {"size": "3"}, {"size": "32"}, {"size": "32"}]}}}}}, {"name": "ConstantFolding/split_124-folded-10", "op": "Const", "attr": {"dtype": {"type": "DT_FLOAT"}, "value": {"tensor": {"dtype": "DT_FLOAT", "tensorShape": {"dim": [{"size": "3"}, {"size": "3"}, {"size": "32"}, {"size": "32"}]}}}}}, {"name": "ConstantFolding/split_124-folded-11", "op": "Const", "attr": {"value": {"tensor": {"dtype": "DT_FLOAT", "tensorShape": {"dim": [{"size": "3"}, {"size": "3"}, {"size": "32"}, {"size": "32"}]}}}, "dtype": {"type": "DT_FLOAT"}}}, {"name": "ConstantFolding/split_124-folded-12", "op": "Const", "attr": {"value": {"tensor": {"dtype": "DT_FLOAT", "tensorShape": {"dim": [{"size": "3"}, {"size": "3"}, {"size": "32"}, {"size": "32"}]}}}, "dtype": {"type": "DT_FLOAT"}}}, {"name": "ConstantFolding/split_124-folded-13", "op": "Const", "attr": {"dtype": {"type": "DT_FLOAT"}, "value": {"tensor": {"dtype": "DT_FLOAT", "tensorShape": {"dim": [{"size": "3"}, {"size": "3"}, {"size": "32"}, {"size": "32"}]}}}}}, {"name": "ConstantFolding/split_124-folded-14", "op": "Const", "attr": {"dtype": {"type": "DT_FLOAT"}, "value": {"tensor": {"dtype": "DT_FLOAT", "tensorShape": {"dim": [{"size": "3"}, {"size": "3"}, {"size": "32"}, {"size": "32"}]}}}}}, {"name": "ConstantFolding/split_124-folded-15", "op": "Const", "attr": {"value": {"tensor": {"dtype": "DT_FLOAT", "tensorShape": {"dim": [{"size": "3"}, {"size": "3"}, {"size": "32"}, {"size": "32"}]}}}, "dtype": {"type": "DT_FLOAT"}}}, {"name": "ConstantFolding/split_124-folded-16", "op": "Const", "attr": {"dtype": {"type": "DT_FLOAT"}, "value": {"tensor": {"dtype": "DT_FLOAT", "tensorShape": {"dim": [{"size": "3"}, {"size": "3"}, {"size": "32"}, {"size": "32"}]}}}}}, {"name": "ConstantFolding/split_124-folded-17", "op": "Const", "attr": {"dtype": {"type": "DT_FLOAT"}, "value": {"tensor": {"dtype": "DT_FLOAT", "tensorShape": {"dim": [{"size": "3"}, {"size": "3"}, {"size": "32"}, {"size": "32"}]}}}}}, {"name": "ConstantFolding/split_124-folded-18", "op": "Const", "attr": {"dtype": {"type": "DT_FLOAT"}, "value": {"tensor": {"dtype": "DT_FLOAT", "tensorShape": {"dim": [{"size": "3"}, {"size": "3"}, {"size": "32"}, {"size": "32"}]}}}}}, {"name": "ConstantFolding/split_124-folded-19", "op": "Const", "attr": {"dtype": {"type": "DT_FLOAT"}, "value": {"tensor": {"dtype": "DT_FLOAT", "tensorShape": {"dim": [{"size": "3"}, {"size": "3"}, {"size": "32"}, {"size": "32"}]}}}}}, {"name": "ConstantFolding/split_124-folded-20", "op": "Const", "attr": {"dtype": {"type": "DT_FLOAT"}, "value": {"tensor": {"dtype": "DT_FLOAT", "tensorShape": {"dim": [{"size": "3"}, {"size": "3"}, {"size": "32"}, {"size": "32"}]}}}}}, {"name": "ConstantFolding/split_124-folded-21", "op": "Const", "attr": {"value": {"tensor": {"dtype": "DT_FLOAT", "tensorShape": {"dim": [{"size": "3"}, {"size": "3"}, {"size": "32"}, {"size": "32"}]}}}, "dtype": {"type": "DT_FLOAT"}}}, {"name": "ConstantFolding/split_124-folded-22", "op": "Const", "attr": {"value": {"tensor": {"dtype": "DT_FLOAT", "tensorShape": {"dim": [{"size": "3"}, {"size": "3"}, {"size": "32"}, {"size": "32"}]}}}, "dtype": {"type": "DT_FLOAT"}}}, {"name": "ConstantFolding/split_124-folded-23", "op": "Const", "attr": {"value": {"tensor": {"dtype": "DT_FLOAT", "tensorShape": {"dim": [{"size": "3"}, {"size": "3"}, {"size": "32"}, {"size": "32"}]}}}, "dtype": {"type": "DT_FLOAT"}}}, {"name": "ConstantFolding/split_124-folded-24", "op": "Const", "attr": {"dtype": {"type": "DT_FLOAT"}, "value": {"tensor": {"dtype": "DT_FLOAT", "tensorShape": {"dim": [{"size": "3"}, {"size": "3"}, {"size": "32"}, {"size": "32"}]}}}}}, {"name": "ConstantFolding/split_124-folded-25", "op": "Const", "attr": {"dtype": {"type": "DT_FLOAT"}, "value": {"tensor": {"dtype": "DT_FLOAT", "tensorShape": {"dim": [{"size": "3"}, {"size": "3"}, {"size": "32"}, {"size": "32"}]}}}}}, {"name": "ConstantFolding/split_124-folded-26", "op": "Const", "attr": {"value": {"tensor": {"dtype": "DT_FLOAT", "tensorShape": {"dim": [{"size": "3"}, {"size": "3"}, {"size": "32"}, {"size": "32"}]}}}, "dtype": {"type": "DT_FLOAT"}}}, {"name": "ConstantFolding/split_124-folded-27", "op": "Const", "attr": {"dtype": {"type": "DT_FLOAT"}, "value": {"tensor": {"dtype": "DT_FLOAT", "tensorShape": {"dim": [{"size": "3"}, {"size": "3"}, {"size": "32"}, {"size": "32"}]}}}}}, {"name": "ConstantFolding/split_124-folded-28", "op": "Const", "attr": {"dtype": {"type": "DT_FLOAT"}, "value": {"tensor": {"dtype": "DT_FLOAT", "tensorShape": {"dim": [{"size": "3"}, {"size": "3"}, {"size": "32"}, {"size": "32"}]}}}}}, {"name": "ConstantFolding/split_124-folded-29", "op": "Const", "attr": {"value": {"tensor": {"dtype": "DT_FLOAT", "tensorShape": {"dim": [{"size": "3"}, {"size": "3"}, {"size": "32"}, {"size": "32"}]}}}, "dtype": {"type": "DT_FLOAT"}}}, {"name": "ConstantFolding/split_124-folded-30", "op": "Const", "attr": {"dtype": {"type": "DT_FLOAT"}, "value": {"tensor": {"dtype": "DT_FLOAT", "tensorShape": {"dim": [{"size": "3"}, {"size": "3"}, {"size": "32"}, {"size": "32"}]}}}}}, {"name": "split_125/split_dim", "op": "Const", "attr": {"dtype": {"type": "DT_INT32"}, "value": {"tensor": {"dtype": "DT_INT32", "tensorShape": {}}}}}, {"name": "split_122", "op": "Const", "attr": {"dtype": {"type": "DT_FLOAT"}, "value": {"tensor": {"dtype": "DT_FLOAT", "tensorShape": {"dim": [{"size": "1"}, {"size": "1"}, {"size": "1024"}, {"size": "1024"}]}}}}}, {"name": "ExpandDims_185", "op": "Const", "attr": {"dtype": {"type": "DT_FLOAT"}, "value": {"tensor": {"dtype": "DT_FLOAT", "tensorShape": {"dim": [{"size": "1"}, {"size": "1024"}, {"size": "1"}, {"size": "1"}]}}}}}, {"name": "Const_144", "op": "Const", "attr": {"value": {"tensor": {"dtype": "DT_INT32", "tensorShape": {"dim": [{"size": "4"}, {"size": "2"}]}}}, "dtype": {"type": "DT_INT32"}}}, {"name": "ConstantFolding/split_124-folded-31", "op": "Const", "attr": {"dtype": {"type": "DT_FLOAT"}, "value": {"tensor": {"dtype": "DT_FLOAT", "tensorShape": {"dim": [{"size": "3"}, {"size": "3"}, {"size": "32"}, {"size": "32"}]}}}}}, {"name": "concat_62/axis", "op": "Const", "attr": {"dtype": {"type": "DT_INT32"}, "value": {"tensor": {"dtype": "DT_INT32", "tensorShape": {}}}}}, {"name": "ExpandDims_188", "op": "Const", "attr": {"value": {"tensor": {"dtype": "DT_FLOAT", "tensorShape": {"dim": [{"size": "1"}, {"size": "1024"}, {"size": "1"}, {"size": "1"}]}}}, "dtype": {"type": "DT_FLOAT"}}}, {"name": "split_126", "op": "Const", "attr": {"dtype": {"type": "DT_FLOAT"}, "value": {"tensor": {"dtype": "DT_FLOAT", "tensorShape": {"dim": [{"size": "1"}, {"size": "1"}, {"size": "1024"}, {"size": "1024"}]}}}}}, {"name": "ExpandDims_191", "op": "Const", "attr": {"dtype": {"type": "DT_FLOAT"}, "value": {"tensor": {"dtype": "DT_FLOAT", "tensorShape": {"dim": [{"size": "1"}, {"size": "1024"}, {"size": "1"}, {"size": "1"}]}}}}}, {"name": "ConstantFolding/split_118-folded-0", "op": "Const", "attr": {"value": {"tensor": {"dtype": "DT_FLOAT", "tensorShape": {"dim": [{"size": "3"}, {"size": "3"}, {"size": "32"}, {"size": "32"}]}}}, "dtype": {"type": "DT_FLOAT"}}}, {"name": "ConstantFolding/split_118-folded-1", "op": "Const", "attr": {"dtype": {"type": "DT_FLOAT"}, "value": {"tensor": {"dtype": "DT_FLOAT", "tensorShape": {"dim": [{"size": "3"}, {"size": "3"}, {"size": "32"}, {"size": "32"}]}}}}}, {"name": "ConstantFolding/split_118-folded-2", "op": "Const", "attr": {"value": {"tensor": {"dtype": "DT_FLOAT", "tensorShape": {"dim": [{"size": "3"}, {"size": "3"}, {"size": "32"}, {"size": "32"}]}}}, "dtype": {"type": "DT_FLOAT"}}}, {"name": "ConstantFolding/split_118-folded-3", "op": "Const", "attr": {"dtype": {"type": "DT_FLOAT"}, "value": {"tensor": {"dtype": "DT_FLOAT", "tensorShape": {"dim": [{"size": "3"}, {"size": "3"}, {"size": "32"}, {"size": "32"}]}}}}}, {"name": "ConstantFolding/split_118-folded-4", "op": "Const", "attr": {"dtype": {"type": "DT_FLOAT"}, "value": {"tensor": {"dtype": "DT_FLOAT", "tensorShape": {"dim": [{"size": "3"}, {"size": "3"}, {"size": "32"}, {"size": "32"}]}}}}}, {"name": "ConstantFolding/split_118-folded-5", "op": "Const", "attr": {"value": {"tensor": {"dtype": "DT_FLOAT", "tensorShape": {"dim": [{"size": "3"}, {"size": "3"}, {"size": "32"}, {"size": "32"}]}}}, "dtype": {"type": "DT_FLOAT"}}}, {"name": "ConstantFolding/split_118-folded-6", "op": "Const", "attr": {"value": {"tensor": {"dtype": "DT_FLOAT", "tensorShape": {"dim": [{"size": "3"}, {"size": "3"}, {"size": "32"}, {"size": "32"}]}}}, "dtype": {"type": "DT_FLOAT"}}}, {"name": "ConstantFolding/split_118-folded-7", "op": "Const", "attr": {"value": {"tensor": {"dtype": "DT_FLOAT", "tensorShape": {"dim": [{"size": "3"}, {"size": "3"}, {"size": "32"}, {"size": "32"}]}}}, "dtype": {"type": "DT_FLOAT"}}}, {"name": "ConstantFolding/split_118-folded-8", "op": "Const", "attr": {"dtype": {"type": "DT_FLOAT"}, "value": {"tensor": {"dtype": "DT_FLOAT", "tensorShape": {"dim": [{"size": "3"}, {"size": "3"}, {"size": "32"}, {"size": "32"}]}}}}}, {"name": "ConstantFolding/split_118-folded-9", "op": "Const", "attr": {"dtype": {"type": "DT_FLOAT"}, "value": {"tensor": {"dtype": "DT_FLOAT", "tensorShape": {"dim": [{"size": "3"}, {"size": "3"}, {"size": "32"}, {"size": "32"}]}}}}}, {"name": "ConstantFolding/split_118-folded-10", "op": "Const", "attr": {"dtype": {"type": "DT_FLOAT"}, "value": {"tensor": {"dtype": "DT_FLOAT", "tensorShape": {"dim": [{"size": "3"}, {"size": "3"}, {"size": "32"}, {"size": "32"}]}}}}}, {"name": "ConstantFolding/split_118-folded-11", "op": "Const", "attr": {"dtype": {"type": "DT_FLOAT"}, "value": {"tensor": {"dtype": "DT_FLOAT", "tensorShape": {"dim": [{"size": "3"}, {"size": "3"}, {"size": "32"}, {"size": "32"}]}}}}}, {"name": "ConstantFolding/split_118-folded-12", "op": "Const", "attr": {"value": {"tensor": {"dtype": "DT_FLOAT", "tensorShape": {"dim": [{"size": "3"}, {"size": "3"}, {"size": "32"}, {"size": "32"}]}}}, "dtype": {"type": "DT_FLOAT"}}}, {"name": "ConstantFolding/split_118-folded-13", "op": "Const", "attr": {"dtype": {"type": "DT_FLOAT"}, "value": {"tensor": {"dtype": "DT_FLOAT", "tensorShape": {"dim": [{"size": "3"}, {"size": "3"}, {"size": "32"}, {"size": "32"}]}}}}}, {"name": "ConstantFolding/split_118-folded-14", "op": "Const", "attr": {"dtype": {"type": "DT_FLOAT"}, "value": {"tensor": {"dtype": "DT_FLOAT", "tensorShape": {"dim": [{"size": "3"}, {"size": "3"}, {"size": "32"}, {"size": "32"}]}}}}}, {"name": "ConstantFolding/split_118-folded-15", "op": "Const", "attr": {"dtype": {"type": "DT_FLOAT"}, "value": {"tensor": {"dtype": "DT_FLOAT", "tensorShape": {"dim": [{"size": "3"}, {"size": "3"}, {"size": "32"}, {"size": "32"}]}}}}}, {"name": "ConstantFolding/split_118-folded-16", "op": "Const", "attr": {"dtype": {"type": "DT_FLOAT"}, "value": {"tensor": {"dtype": "DT_FLOAT", "tensorShape": {"dim": [{"size": "3"}, {"size": "3"}, {"size": "32"}, {"size": "32"}]}}}}}, {"name": "ConstantFolding/split_118-folded-17", "op": "Const", "attr": {"value": {"tensor": {"dtype": "DT_FLOAT", "tensorShape": {"dim": [{"size": "3"}, {"size": "3"}, {"size": "32"}, {"size": "32"}]}}}, "dtype": {"type": "DT_FLOAT"}}}, {"name": "ConstantFolding/split_118-folded-18", "op": "Const", "attr": {"dtype": {"type": "DT_FLOAT"}, "value": {"tensor": {"dtype": "DT_FLOAT", "tensorShape": {"dim": [{"size": "3"}, {"size": "3"}, {"size": "32"}, {"size": "32"}]}}}}}, {"name": "ConstantFolding/split_118-folded-19", "op": "Const", "attr": {"value": {"tensor": {"dtype": "DT_FLOAT", "tensorShape": {"dim": [{"size": "3"}, {"size": "3"}, {"size": "32"}, {"size": "32"}]}}}, "dtype": {"type": "DT_FLOAT"}}}, {"name": "ConstantFolding/split_118-folded-20", "op": "Const", "attr": {"dtype": {"type": "DT_FLOAT"}, "value": {"tensor": {"dtype": "DT_FLOAT", "tensorShape": {"dim": [{"size": "3"}, {"size": "3"}, {"size": "32"}, {"size": "32"}]}}}}}, {"name": "ConstantFolding/split_118-folded-21", "op": "Const", "attr": {"dtype": {"type": "DT_FLOAT"}, "value": {"tensor": {"dtype": "DT_FLOAT", "tensorShape": {"dim": [{"size": "3"}, {"size": "3"}, {"size": "32"}, {"size": "32"}]}}}}}, {"name": "ConstantFolding/split_118-folded-22", "op": "Const", "attr": {"dtype": {"type": "DT_FLOAT"}, "value": {"tensor": {"dtype": "DT_FLOAT", "tensorShape": {"dim": [{"size": "3"}, {"size": "3"}, {"size": "32"}, {"size": "32"}]}}}}}, {"name": "ConstantFolding/split_118-folded-23", "op": "Const", "attr": {"dtype": {"type": "DT_FLOAT"}, "value": {"tensor": {"dtype": "DT_FLOAT", "tensorShape": {"dim": [{"size": "3"}, {"size": "3"}, {"size": "32"}, {"size": "32"}]}}}}}, {"name": "ConstantFolding/split_118-folded-24", "op": "Const", "attr": {"dtype": {"type": "DT_FLOAT"}, "value": {"tensor": {"dtype": "DT_FLOAT", "tensorShape": {"dim": [{"size": "3"}, {"size": "3"}, {"size": "32"}, {"size": "32"}]}}}}}, {"name": "ConstantFolding/split_118-folded-25", "op": "Const", "attr": {"value": {"tensor": {"dtype": "DT_FLOAT", "tensorShape": {"dim": [{"size": "3"}, {"size": "3"}, {"size": "32"}, {"size": "32"}]}}}, "dtype": {"type": "DT_FLOAT"}}}, {"name": "ConstantFolding/split_118-folded-26", "op": "Const", "attr": {"value": {"tensor": {"dtype": "DT_FLOAT", "tensorShape": {"dim": [{"size": "3"}, {"size": "3"}, {"size": "32"}, {"size": "32"}]}}}, "dtype": {"type": "DT_FLOAT"}}}, {"name": "ConstantFolding/split_118-folded-27", "op": "Const", "attr": {"value": {"tensor": {"dtype": "DT_FLOAT", "tensorShape": {"dim": [{"size": "3"}, {"size": "3"}, {"size": "32"}, {"size": "32"}]}}}, "dtype": {"type": "DT_FLOAT"}}}, {"name": "ConstantFolding/split_118-folded-28", "op": "Const", "attr": {"dtype": {"type": "DT_FLOAT"}, "value": {"tensor": {"dtype": "DT_FLOAT", "tensorShape": {"dim": [{"size": "3"}, {"size": "3"}, {"size": "32"}, {"size": "32"}]}}}}}, {"name": "ConstantFolding/split_118-folded-29", "op": "Const", "attr": {"dtype": {"type": "DT_FLOAT"}, "value": {"tensor": {"dtype": "DT_FLOAT", "tensorShape": {"dim": [{"size": "3"}, {"size": "3"}, {"size": "32"}, {"size": "32"}]}}}}}, {"name": "ConstantFolding/split_118-folded-30", "op": "Const", "attr": {"value": {"tensor": {"dtype": "DT_FLOAT", "tensorShape": {"dim": [{"size": "3"}, {"size": "3"}, {"size": "32"}, {"size": "32"}]}}}, "dtype": {"type": "DT_FLOAT"}}}, {"name": "split_119/split_dim", "op": "Const", "attr": {"dtype": {"type": "DT_INT32"}, "value": {"tensor": {"dtype": "DT_INT32", "tensorShape": {}}}}}, {"name": "split_116", "op": "Const", "attr": {"dtype": {"type": "DT_FLOAT"}, "value": {"tensor": {"dtype": "DT_FLOAT", "tensorShape": {"dim": [{"size": "1"}, {"size": "1"}, {"size": "1024"}, {"size": "1024"}]}}}}}, {"name": "ExpandDims_176", "op": "Const", "attr": {"dtype": {"type": "DT_FLOAT"}, "value": {"tensor": {"dtype": "DT_FLOAT", "tensorShape": {"dim": [{"size": "1"}, {"size": "1024"}, {"size": "1"}, {"size": "1"}]}}}}}, {"name": "Const_137", "op": "Const", "attr": {"dtype": {"type": "DT_INT32"}, "value": {"tensor": {"dtype": "DT_INT32", "tensorShape": {"dim": [{"size": "4"}, {"size": "2"}]}}}}}, {"name": "ConstantFolding/split_118-folded-31", "op": "Const", "attr": {"dtype": {"type": "DT_FLOAT"}, "value": {"tensor": {"dtype": "DT_FLOAT", "tensorShape": {"dim": [{"size": "3"}, {"size": "3"}, {"size": "32"}, {"size": "32"}]}}}}}, {"name": "concat_59/axis", "op": "Const", "attr": {"dtype": {"type": "DT_INT32"}, "value": {"tensor": {"dtype": "DT_INT32", "tensorShape": {}}}}}, {"name": "ExpandDims_179", "op": "Const", "attr": {"value": {"tensor": {"dtype": "DT_FLOAT", "tensorShape": {"dim": [{"size": "1"}, {"size": "1024"}, {"size": "1"}, {"size": "1"}]}}}, "dtype": {"type": "DT_FLOAT"}}}, {"name": "split_120", "op": "Const", "attr": {"dtype": {"type": "DT_FLOAT"}, "value": {"tensor": {"dtype": "DT_FLOAT", "tensorShape": {"dim": [{"size": "1"}, {"size": "1"}, {"size": "1024"}, {"size": "1024"}]}}}}}, {"name": "ExpandDims_182", "op": "Const", "attr": {"dtype": {"type": "DT_FLOAT"}, "value": {"tensor": {"dtype": "DT_FLOAT", "tensorShape": {"dim": [{"size": "1"}, {"size": "1024"}, {"size": "1"}, {"size": "1"}]}}}}}, {"name": "ConstantFolding/split_112-folded-0", "op": "Const", "attr": {"dtype": {"type": "DT_FLOAT"}, "value": {"tensor": {"dtype": "DT_FLOAT", "tensorShape": {"dim": [{"size": "3"}, {"size": "3"}, {"size": "32"}, {"size": "32"}]}}}}}, {"name": "ConstantFolding/split_112-folded-1", "op": "Const", "attr": {"dtype": {"type": "DT_FLOAT"}, "value": {"tensor": {"dtype": "DT_FLOAT", "tensorShape": {"dim": [{"size": "3"}, {"size": "3"}, {"size": "32"}, {"size": "32"}]}}}}}, {"name": "ConstantFolding/split_112-folded-2", "op": "Const", "attr": {"dtype": {"type": "DT_FLOAT"}, "value": {"tensor": {"dtype": "DT_FLOAT", "tensorShape": {"dim": [{"size": "3"}, {"size": "3"}, {"size": "32"}, {"size": "32"}]}}}}}, {"name": "ConstantFolding/split_112-folded-3", "op": "Const", "attr": {"value": {"tensor": {"dtype": "DT_FLOAT", "tensorShape": {"dim": [{"size": "3"}, {"size": "3"}, {"size": "32"}, {"size": "32"}]}}}, "dtype": {"type": "DT_FLOAT"}}}, {"name": "ConstantFolding/split_112-folded-4", "op": "Const", "attr": {"value": {"tensor": {"dtype": "DT_FLOAT", "tensorShape": {"dim": [{"size": "3"}, {"size": "3"}, {"size": "32"}, {"size": "32"}]}}}, "dtype": {"type": "DT_FLOAT"}}}, {"name": "ConstantFolding/split_112-folded-5", "op": "Const", "attr": {"value": {"tensor": {"dtype": "DT_FLOAT", "tensorShape": {"dim": [{"size": "3"}, {"size": "3"}, {"size": "32"}, {"size": "32"}]}}}, "dtype": {"type": "DT_FLOAT"}}}, {"name": "ConstantFolding/split_112-folded-6", "op": "Const", "attr": {"dtype": {"type": "DT_FLOAT"}, "value": {"tensor": {"dtype": "DT_FLOAT", "tensorShape": {"dim": [{"size": "3"}, {"size": "3"}, {"size": "32"}, {"size": "32"}]}}}}}, {"name": "ConstantFolding/split_112-folded-7", "op": "Const", "attr": {"value": {"tensor": {"dtype": "DT_FLOAT", "tensorShape": {"dim": [{"size": "3"}, {"size": "3"}, {"size": "32"}, {"size": "32"}]}}}, "dtype": {"type": "DT_FLOAT"}}}, {"name": "ConstantFolding/split_112-folded-8", "op": "Const", "attr": {"dtype": {"type": "DT_FLOAT"}, "value": {"tensor": {"dtype": "DT_FLOAT", "tensorShape": {"dim": [{"size": "3"}, {"size": "3"}, {"size": "32"}, {"size": "32"}]}}}}}, {"name": "ConstantFolding/split_112-folded-9", "op": "Const", "attr": {"value": {"tensor": {"dtype": "DT_FLOAT", "tensorShape": {"dim": [{"size": "3"}, {"size": "3"}, {"size": "32"}, {"size": "32"}]}}}, "dtype": {"type": "DT_FLOAT"}}}, {"name": "ConstantFolding/split_112-folded-10", "op": "Const", "attr": {"dtype": {"type": "DT_FLOAT"}, "value": {"tensor": {"dtype": "DT_FLOAT", "tensorShape": {"dim": [{"size": "3"}, {"size": "3"}, {"size": "32"}, {"size": "32"}]}}}}}, {"name": "ConstantFolding/split_112-folded-11", "op": "Const", "attr": {"value": {"tensor": {"dtype": "DT_FLOAT", "tensorShape": {"dim": [{"size": "3"}, {"size": "3"}, {"size": "32"}, {"size": "32"}]}}}, "dtype": {"type": "DT_FLOAT"}}}, {"name": "ConstantFolding/split_112-folded-12", "op": "Const", "attr": {"dtype": {"type": "DT_FLOAT"}, "value": {"tensor": {"dtype": "DT_FLOAT", "tensorShape": {"dim": [{"size": "3"}, {"size": "3"}, {"size": "32"}, {"size": "32"}]}}}}}, {"name": "ConstantFolding/split_112-folded-13", "op": "Const", "attr": {"dtype": {"type": "DT_FLOAT"}, "value": {"tensor": {"dtype": "DT_FLOAT", "tensorShape": {"dim": [{"size": "3"}, {"size": "3"}, {"size": "32"}, {"size": "32"}]}}}}}, {"name": "ConstantFolding/split_112-folded-14", "op": "Const", "attr": {"value": {"tensor": {"dtype": "DT_FLOAT", "tensorShape": {"dim": [{"size": "3"}, {"size": "3"}, {"size": "32"}, {"size": "32"}]}}}, "dtype": {"type": "DT_FLOAT"}}}, {"name": "ConstantFolding/split_112-folded-15", "op": "Const", "attr": {"dtype": {"type": "DT_FLOAT"}, "value": {"tensor": {"dtype": "DT_FLOAT", "tensorShape": {"dim": [{"size": "3"}, {"size": "3"}, {"size": "32"}, {"size": "32"}]}}}}}, {"name": "ConstantFolding/split_112-folded-16", "op": "Const", "attr": {"value": {"tensor": {"dtype": "DT_FLOAT", "tensorShape": {"dim": [{"size": "3"}, {"size": "3"}, {"size": "32"}, {"size": "32"}]}}}, "dtype": {"type": "DT_FLOAT"}}}, {"name": "ConstantFolding/split_112-folded-17", "op": "Const", "attr": {"dtype": {"type": "DT_FLOAT"}, "value": {"tensor": {"dtype": "DT_FLOAT", "tensorShape": {"dim": [{"size": "3"}, {"size": "3"}, {"size": "32"}, {"size": "32"}]}}}}}, {"name": "ConstantFolding/split_112-folded-18", "op": "Const", "attr": {"value": {"tensor": {"dtype": "DT_FLOAT", "tensorShape": {"dim": [{"size": "3"}, {"size": "3"}, {"size": "32"}, {"size": "32"}]}}}, "dtype": {"type": "DT_FLOAT"}}}, {"name": "ConstantFolding/split_112-folded-19", "op": "Const", "attr": {"dtype": {"type": "DT_FLOAT"}, "value": {"tensor": {"dtype": "DT_FLOAT", "tensorShape": {"dim": [{"size": "3"}, {"size": "3"}, {"size": "32"}, {"size": "32"}]}}}}}, {"name": "ConstantFolding/split_112-folded-20", "op": "Const", "attr": {"dtype": {"type": "DT_FLOAT"}, "value": {"tensor": {"dtype": "DT_FLOAT", "tensorShape": {"dim": [{"size": "3"}, {"size": "3"}, {"size": "32"}, {"size": "32"}]}}}}}, {"name": "ConstantFolding/split_112-folded-21", "op": "Const", "attr": {"value": {"tensor": {"dtype": "DT_FLOAT", "tensorShape": {"dim": [{"size": "3"}, {"size": "3"}, {"size": "32"}, {"size": "32"}]}}}, "dtype": {"type": "DT_FLOAT"}}}, {"name": "ConstantFolding/split_112-folded-22", "op": "Const", "attr": {"value": {"tensor": {"dtype": "DT_FLOAT", "tensorShape": {"dim": [{"size": "3"}, {"size": "3…
split_dim", "shape": [], "dtype": "int32"}, {"name": "split_86", "shape": [1, 1, 1024, 1024], "dtype": "float32"}, {"name": "ExpandDims_131", "shape": [1, 1024, 1, 1], "dtype": "float32"}, {"name": "Const_102", "shape": [4, 2], "dtype": "int32"}, {"name": "ConstantFolding/split_88-folded-31", "shape": [3, 3, 32, 32], "dtype": "float32"}, {"name": "concat_44/axis", "shape": [], "dtype": "int32"}, {"name": "ExpandDims_134", "shape": [1, 1024, 1, 1], "dtype": "float32"}, {"name": "split_90", "shape": [1, 1, 1024, 1024], "dtype": "float32"}, {"name": "ExpandDims_137", "shape": [1, 1024, 1, 1], "dtype": "float32"}, {"name": "ConstantFolding/split_82-folded-0", "shape": [3, 3, 32, 32], "dtype": "float32"}, {"name": "ConstantFolding/split_82-folded-1", "shape": [3, 3, 32, 32], "dtype": "float32"}, {"name": "ConstantFolding/split_82-folded-2", "shape": [3, 3, 32, 32], "dtype": "float32"}, {"name": "ConstantFolding/split_82-folded-3", "shape": [3, 3, 32, 32], "dtype": "float32"}, {"name": "ConstantFolding/split_82-folded-4", "shape": [3, 3, 32, 32], "dtype": "float32"}, {"name": "ConstantFolding/split_82-folded-5", "shape": [3, 3, 32, 32], "dtype": "float32"}, {"name": "ConstantFolding/split_82-folded-6", "shape": [3, 3, 32, 32], "dtype": "float32"}, {"name": "ConstantFolding/split_82-folded-7", "shape": [3, 3, 32, 32], "dtype": "float32"}, {"name": "ConstantFolding/split_82-folded-8", "shape": [3, 3, 32, 32], "dtype": "float32"}, {"name": "ConstantFolding/split_82-folded-9", "shape": [3, 3, 32, 32], "dtype": "float32"}, {"name": "ConstantFolding/split_82-folded-10", "shape": [3, 3, 32, 32], "dtype": "float32"}, {"name": "ConstantFolding/split_82-folded-11", "shape": [3, 3, 32, 32], "dtype": "float32"}, {"name": "ConstantFolding/split_82-folded-12", "shape": [3, 3, 32, 32], "dtype": "float32"}, {"name": "ConstantFolding/split_82-folded-13", "shape": [3, 3, 32, 32], "dtype": "float32"}, {"name": "ConstantFolding/split_82-folded-14", "shape": [3, 3, 32, 32], "dtype": "float32"}, {"name": "ConstantFolding/split_82-folded-15", "shape": [3, 3, 32, 32], "dtype": "float32"}, {"name": "ConstantFolding/split_82-folded-16", "shape": [3, 3, 32, 32], "dtype": "float32"}, {"name": "ConstantFolding/split_82-folded-17", "shape": [3, 3, 32, 32], "dtype": "float32"}, {"name": "ConstantFolding/split_82-folded-18", "shape": [3, 3, 32, 32], "dtype": "float32"}, {"name": "ConstantFolding/split_82-folded-19", "shape": [3, 3, 32, 32], "dtype": "float32"}, {"name": "ConstantFolding/split_82-folded-20", "shape": [3, 3, 32, 32], "dtype": "float32"}, {"name": "ConstantFolding/split_82-folded-21", "shape": [3, 3, 32, 32], "dtype": "float32"}, {"name": "ConstantFolding/split_82-folded-22", "shape": [3, 3, 32, 32], "dtype": "float32"}, {"name": "ConstantFolding/split_82-folded-23", "shape": [3, 3, 32, 32], "dtype": "float32"}, {"name": "ConstantFolding/split_82-folded-24", "shape": [3, 3, 32, 32], "dtype": "float32"}, {"name": "ConstantFolding/split_82-folded-25", "shape": [3, 3, 32, 32], "dtype": "float32"}, {"name": "ConstantFolding/split_82-folded-26", "shape": [3, 3, 32, 32], "dtype": "float32"}, {"name": "ConstantFolding/split_82-folded-27", "shape": [3, 3, 32, 32], "dtype": "float32"}, {"name": "ConstantFolding/split_82-folded-28", "shape": [3, 3, 32, 32], "dtype": "float32"}, {"name": "ConstantFolding/split_82-folded-29", "shape": [3, 3, 32, 32], "dtype": "float32"}, {"name": "ConstantFolding/split_82-folded-30", "shape": [3, 3, 32, 32], "dtype": "float32"}, {"name": "split_83/split_dim", "shape": [], "dtype": "int32"}, {"name": "split_80", "shape": [1, 1, 1024, 1024], "dtype": "float32"}, {"name": "ExpandDims_122", "shape": [1, 1024, 1, 1], "dtype": "float32"}, {"name": "Const_95", "shape": [4, 2], "dtype": "int32"}, {"name": "ConstantFolding/split_82-folded-31", "shape": [3, 3, 32, 32], "dtype": "float32"}, {"name": "concat_41/axis", "shape": [], "dtype": "int32"}, {"name": "ExpandDims_125", "shape": [1, 1024, 1, 1], "dtype": "float32"}, {"name": "split_84", "shape": [1, 1, 1024, 1024], "dtype": "float32"}, {"name": "ExpandDims_128", "shape": [1, 1024, 1, 1], "dtype": "float32"}, {"name": "ConstantFolding/split_76-folded-0", "shape": [3, 3, 32, 32], "dtype": "float32"}, {"name": "ConstantFolding/split_76-folded-1", "shape": [3, 3, 32, 32], "dtype": "float32"}, {"name": "ConstantFolding/split_76-folded-2", "shape": [3, 3, 32, 32], "dtype": "float32"}, {"name": "ConstantFolding/split_76-folded-3", "shape": [3, 3, 32, 32], "dtype": "float32"}, {"name": "ConstantFolding/split_76-folded-4", "shape": [3, 3, 32, 32], "dtype": "float32"}, {"name": "ConstantFolding/split_76-folded-5", "shape": [3, 3, 32, 32], "dtype": "float32"}, {"name": "ConstantFolding/split_76-folded-6", "shape": [3, 3, 32, 32], "dtype": "float32"}, {"name": "ConstantFolding/split_76-folded-7", "shape": [3, 3, 32, 32], "dtype": "float32"}, {"name": "ConstantFolding/split_76-folded-8", "shape": [3, 3, 32, 32], "dtype": "float32"}, {"name": "ConstantFolding/split_76-folded-9", "shape": [3, 3, 32, 32], "dtype": "float32"}, {"name": "ConstantFolding/split_76-folded-10", "shape": [3, 3, 32, 32], "dtype": "float32"}, {"name": "ConstantFolding/split_76-folded-11", "shape": [3, 3, 32, 32], "dtype": "float32"}, {"name": "ConstantFolding/split_76-folded-12", "shape": [3, 3, 32, 32], "dtype": "float32"}, {"name": "ConstantFolding/split_76-folded-13", "shape": [3, 3, 32, 32], "dtype": "float32"}, {"name": "ConstantFolding/split_76-folded-14", "shape": [3, 3, 32, 32], "dtype": "float32"}, {"name": "ConstantFolding/split_76-folded-15", "shape": [3, 3, 32, 32], "dtype": "float32"}, {"name": "ConstantFolding/split_76-folded-16", "shape": [3, 3, 32, 32], "dtype": "float32"}, {"name": "ConstantFolding/split_76-folded-17", "shape": [3, 3, 32, 32], "dtype": "float32"}, {"name": "ConstantFolding/split_76-folded-18", "shape": [3, 3, 32, 32], "dtype": "float32"}, {"name": "ConstantFolding/split_76-folded-19", "shape": [3, 3, 32, 32], "dtype": "float32"}, {"name": "ConstantFolding/split_76-folded-20", "shape": [3, 3, 32, 32], "dtype": "float32"}, {"name": "ConstantFolding/split_76-folded-21", "shape": [3, 3, 32, 32], "dtype": "float32"}, {"name": "ConstantFolding/split_76-folded-22", "shape": [3, 3, 32, 32], "dtype": "float32"}, {"name": "ConstantFolding/split_76-folded-23", "shape": [3, 3, 32, 32], "dtype": "float32"}, {"name": "ConstantFolding/split_76-folded-24", "shape": [3, 3, 32, 32], "dtype": "float32"}, {"name": "ConstantFolding/split_76-folded-25", "shape": [3, 3, 32, 32], "dtype": "float32"}, {"name": "ConstantFolding/split_76-folded-26", "shape": [3, 3, 32, 32], "dtype": "float32"}, {"name": "ConstantFolding/split_76-folded-27", "shape": [3, 3, 32, 32], "dtype": "float32"}, {"name": "ConstantFolding/split_76-folded-28", "shape": [3, 3, 32, 32], "dtype": "float32"}, {"name": "ConstantFolding/split_76-folded-29", "shape": [3, 3, 32, 32], "dtype": "float32"}, {"name": "ConstantFolding/split_76-folded-30", "shape": [3, 3, 32, 32], "dtype": "float32"}, {"name": "split_77/split_dim", "shape": [], "dtype": "int32"}, {"name": "split_74", "shape": [1, 1, 1024, 1024], "dtype": "float32"}, {"name": "ExpandDims_113", "shape": [1, 1024, 1, 1], "dtype": "float32"}, {"name": "Const_88", "shape": [4, 2], "dtype": "int32"}, {"name": "ConstantFolding/split_76-folded-31", "shape": [3, 3, 32, 32], "dtype": "float32"}, {"name": "concat_38/axis", "shape": [], "dtype": "int32"}, {"name": "ExpandDims_116", "shape": [1, 1024, 1, 1], "dtype": "float32"}, {"name": "split_78", "shape": [1, 1, 1024, 1024], "dtype": "float32"}, {"name": "ExpandDims_119", "shape": [1, 1024, 1, 1], "dtype": "float32"}, {"name": "ConstantFolding/split_70-folded-0", "shape": [3, 3, 32, 32], "dtype": "float32"}, {"name": "ConstantFolding/split_70-folded-1", "shape": [3, 3, 32, 32], "dtype": "float32"}, {"name": "ConstantFolding/split_70-folded-2", "shape": [3, 3, 32, 32], "dtype": "float32"}, {"name": "ConstantFolding/split_70-folded-3", "shape": [3, 3, 32, 32], "dtype": "float32"}, {"name": "ConstantFolding/split_70-folded-4", "shape": [3, 3, 32, 32], "dtype": "float32"}, {"name": "ConstantFolding/split_70-folded-5", "shape": [3, 3, 32, 32], "dtype": "float32"}, {"name": "ConstantFolding/split_70-folded-6", "shape": [3, 3, 32, 32], "dtype": "float32"}, {"name": "ConstantFolding/split_70-folded-7", "shape": [3, 3, 32, 32], "dtype": "float32"}, {"name": "ConstantFolding/split_70-folded-8", "shape": [3, 3, 32, 32], "dtype": "float32"}, {"name": "ConstantFolding/split_70-folded-9", "shape": [3, 3, 32, 32], "dtype": "float32"}, {"name": "ConstantFolding/split_70-folded-10", "shape": [3, 3, 32, 32], "dtype": "float32"}, {"name": "ConstantFolding/split_70-folded-11", "shape": [3, 3, 32, 32], "dtype": "float32"}, {"name": "ConstantFolding/split_70-folded-12", "shape": [3, 3, 32, 32], "dtype": "float32"}, {"name": "ConstantFolding/split_70-folded-13", "shape": [3, 3, 32, 32], "dtype": "float32"}, {"name": "ConstantFolding/split_70-folded-14", "shape": [3, 3, 32, 32], "dtype": "float32"}, {"name": "ConstantFolding/split_70-folded-15", "shape": [3, 3, 32, 32], "dtype": "float32"}, {"name": "ConstantFolding/split_70-folded-16", "shape": [3, 3, 32, 32], "dtype": "float32"}, {"name": "ConstantFolding/split_70-folded-17", "shape": [3, 3, 32, 32], "dtype": "float32"}, {"name": "ConstantFolding/split_70-folded-18", "shape": [3, 3, 32, 32], "dtype": "float32"}, {"name": "ConstantFolding/split_70-folded-19", "shape": [3, 3, 32, 32], "dtype": "float32"}, {"name": "ConstantFolding/split_70-folded-20", "shape": [3, 3, 32, 32], "dtype": "float32"}, {"name": "ConstantFolding/split_70-folded-21", "shape": [3, 3, 32, 32], "dtype": "float32"}, {"name": "ConstantFolding/split_70-folded-22", "shape": [3, 3, 32, 32], "dtype": "float32"}, {"name": "ConstantFolding/split_70-folded-23", "shape": [3, 3, 32, 32], "dtype": "float32"}, {"name": "ConstantFolding/split_70-folded-24", "shape": [3, 3, 32, 32], "dtype": "float32"}, {"name": "ConstantFolding/split_70-folded-25", "shape": [3, 3, 32, 32], "dtype": "float32"}, {"name": "ConstantFolding/split_70-folded-26", "shape": [3, 3, 32, 32], "dtype": "float32"}, {"name": "ConstantFolding/split_70-folded-27", "shape": [3, 3, 32, 32], "dtype": "float32"}, {"name": "ConstantFolding/split_70-folded-28", "shape": [3, 3, 32, 32], "dtype": "float32"}, {"name": "ConstantFolding/split_70-folded-29", "shape": [3, 3, 32, 32], "dtype": "float32"}, {"name": "ConstantFolding/split_70-folded-30", "shape": [3, 3, 32, 32], "dtype": "float32"}, {"name": "split_71/split_dim", "shape": [], "dtype": "int32"}, {"name": "split_68", "shape": [1, 1, 1024, 1024], "dtype": "float32"}, {"name": "ExpandDims_104", "shape": [1, 1024, 1, 1], "dtype": "float32"}, {"name": "Const_81", "shape": [4, 2], "dtype": "int32"}, {"name": "ConstantFolding/split_70-folded-31", "shape": [3, 3, 32, 32], "dtype": "float32"}, {"name": "concat_35/axis", "shape": [], "dtype": "int32"}, {"name": "ExpandDims_107", "shape": [1, 1024, 1, 1], "dtype": "float32"}, {"name": "split_72", "shape": [1, 1, 1024, 1024], "dtype": "float32"}, {"name": "ExpandDims_110", "shape": [1, 1024, 1, 1], "dtype": "float32"}, {"name": "ConstantFolding/split_64-folded-0", "shape": [3, 3, 32, 32], "dtype": "float32"}, {"name": "ConstantFolding/split_64-folded-1", "shape": [3, 3, 32, 32], "dtype": "float32"}, {"name": "ConstantFolding/split_64-folded-2", "shape": [3, 3, 32, 32], "dtype": "float32"}, {"name": "ConstantFolding/split_64-folded-3", "shape": [3, 3, 32, 32], "dtype": "float32"}, {"name": "ConstantFolding/split_64-folded-4", "shape": [3, 3, 32, 32], "dtype": "float32"}, {"name": "ConstantFolding/split_64-folded-5", "shape": [3, 3, 32, 32], "dtype": "float32"}, {"name": "ConstantFolding/split_64-folded-6", "shape": [3, 3, 32, 32], "dtype": "float32"}, {"name": "ConstantFolding/split_64-folded-7", "shape": [3, 3, 32, 32], "dtype": "float32"}, {"name": "ConstantFolding/split_64-folded-8", "shape": [3, 3, 32, 32], "dtype": "float32"}, {"name": "ConstantFolding/split_64-folded-9", "shape": [3, 3, 32, 32], "dtype": "float32"}, {"name": "ConstantFolding/split_64-folded-10", "shape": [3, 3, 32, 32], "dtype": "float32"}, {"name": "ConstantFolding/split_64-folded-11", "shape": [3, 3, 32, 32], "dtype": "float32"}, {"name": "ConstantFolding/split_64-folded-12", "shape": [3, 3, 32, 32], "dtype": "float32"}, {"name": "ConstantFolding/split_64-folded-13", "shape": [3, 3, 32, 32], "dtype": "float32"}, {"name": "ConstantFolding/split_64-folded-14", "shape": [3, 3, 32, 32], "dtype": "float32"}, {"name": "ConstantFolding/split_64-folded-15", "shape": [3, 3, 32, 32], "dtype": "float32"}, {"name": "ConstantFolding/split_64-folded-16", "shape": [3, 3, 32, 32], "dtype": "float32"}, {"name": "ConstantFolding/split_64-folded-17", "shape": [3, 3, 32, 32], "dtype": "float32"}, {"name": "ConstantFolding/split_64-folded-18", "shape": [3, 3, 32, 32], "dtype": "float32"}, {"name": "ConstantFolding/split_64-folded-19", "shape": [3, 3, 32, 32], "dtype": "float32"}, {"name": "ConstantFolding/split_64-folded-20", "shape": [3, 3, 32, 32], "dtype": "float32"}, {"name": "ConstantFolding/split_64-folded-21", "shape": [3, 3, 32, 32], "dtype": "float32"}, {"name": "ConstantFolding/split_64-folded-22", "shape": [3, 3, 32, 32], "dtype": "float32"}, {"name": "ConstantFolding/split_64-folded-23", "shape": [3, 3, 32, 32], "dtype": "float32"}, {"name": "ConstantFolding/split_64-folded-24", "shape": [3, 3, 32, 32], "dtype": "float32"}, {"name": "ConstantFolding/split_64-folded-25", "shape": [3, 3, 32, 32], "dtype": "float32"}, {"name": "ConstantFolding/split_64-folded-26", "shape": [3, 3, 32, 32], "dtype": "float32"}, {"name": "ConstantFolding/split_64-folded-27", "shape": [3, 3, 32, 32], "dtype": "float32"}, {"name": "ConstantFolding/split_64-folded-28", "shape": [3, 3, 32, 32], "dtype": "float32"}, {"name": "ConstantFolding/split_64-folded-29", "shape": [3, 3, 32, 32], "dtype": "float32"}, {"name": "ConstantFolding/split_64-folded-30", "shape": [3, 3, 32, 32], "dtype": "float32"}, {"name": "split_65/split_dim", "shape": [], "dtype": "int32"}, {"name": "split_62", "shape": [1, 1, 1024, 1024], "dtype": "float32"}, {"name": "ExpandDims_95", "shape": [1, 1024, 1, 1], "dtype": "float32"}, {"name": "Const_74", "shape": [4, 2], "dtype": "int32"}, {"name": "ConstantFolding/split_64-folded-31", "shape": [3, 3, 32, 32], "dtype": "float32"}, {"name": "concat_32/axis", "shape": [], "dtype": "int32"}, {"name": "ExpandDims_98", "shape": [1, 1024, 1, 1], "dtype": "float32"}, {"name": "split_66", "shape": [1, 1, 1024, 1024], "dtype": "float32"}, {"name": "ExpandDims_101", "shape": [1, 1024, 1, 1], "dtype": "float32"}, {"name": "ConstantFolding/split_58-folded-0", "shape": [3, 3, 32, 32], "dtype": "float32"}, {"name": "ConstantFolding/split_58-folded-1", "shape": [3, 3, 32, 32], "dtype": "float32"}, {"name": "ConstantFolding/split_58-folded-2", "shape": [3, 3, 32, 32], "dtype": "float32"}, {"name": "ConstantFolding/split_58-folded-3", "shape": [3, 3, 32, 32], "dtype": "float32"}, {"name": "ConstantFolding/split_58-folded-4", "shape": [3, 3, 32, 32], "dtype": "float32"}, {"name": "ConstantFolding/split_58-folded-5", "shape": [3, 3, 32, 32], "dtype": "float32"}, {"name": "ConstantFolding/split_58-folded-6", "shape": [3, 3, 32, 32], "dtype": "float32"}, {"name": "ConstantFolding/split_58-folded-7", "shape": [3, 3, 32, 32], "dtype": "float32"}, {"name": "ConstantFolding/split_58-folded-8", "shape": [3, 3, 32, 32], "dtype": "float32"}, {"name": "ConstantFolding/split_58-folded-9", "shape": [3, 3, 32, 32], "dtype": "float32"}, {"name": "ConstantFolding/split_58-folded-10", "shape": [3, 3, 32, 32], "dtype": "float32"}, {"name": "ConstantFolding/split_58-folded-11", "shape": [3, 3, 32, 32], "dtype": "float32"}, {"name": "ConstantFolding/split_58-folded-12", "shape": [3, 3, 32, 32], "dtype": "float32"}, {"name": "ConstantFolding/split_58-folded-13", "shape": [3, 3, 32, 32], "dtype": "float32"}, {"name": "ConstantFolding/split_58-folded-14", "shape": [3, 3, 32, 32], "dtype": "float32"}, {"name": "ConstantFolding/split_58-folded-15", "shape": [3, 3, 32, 32], "dtype": "float32"}, {"name": "ConstantFolding/split_58-folded-16", "shape": [3, 3, 32, 32], "dtype": "float32"}, {"name": "ConstantFolding/split_58-folded-17", "shape": [3, 3, 32, 32], "dtype": "float32"}, {"name": "ConstantFolding/split_58-folded-18", "shape": [3, 3, 32, 32], "dtype": "float32"}, {"name": "ConstantFolding/split_58-folded-19", "shape": [3, 3, 32, 32], "dtype": "float32"}, {"name": "ConstantFolding/split_58-folded-20", "shape": [3, 3, 32, 32], "dtype": "float32"}, {"name": "ConstantFolding/split_58-folded-21", "shape": [3, 3, 32, 32], "dtype": "float32"}, {"name": "ConstantFolding/split_58-folded-22", "shape": [3, 3, 32, 32], "dtype": "float32"}, {"name": "ConstantFolding/split_58-folded-23", "shape": [3, 3, 32, 32], "dtype": "float32"}, {"name": "ConstantFolding/split_58-folded-24", "shape": [3, 3, 32, 32], "dtype": "float32"}, {"name": "ConstantFolding/split_58-folded-25", "shape": [3, 3, 32, 32], "dtype": "float32"}, {"name": "ConstantFolding/split_58-folded-26", "shape": [3, 3, 32, 32], "dtype": "float32"}, {"name": "ConstantFolding/split_58-folded-27", "shape": [3, 3, 32, 32], "dtype": "float32"}, {"name": "ConstantFolding/split_58-folded-28", "shape": [3, 3, 32, 32], "dtype": "float32"}, {"name": "ConstantFolding/split_58-folded-29", "shape": [3, 3, 32, 32], "dtype": "float32"}, {"name": "ConstantFolding/split_58-folded-30", "shape": [3, 3, 32, 32], "dtype": "float32"}, {"name": "split_59/split_dim", "shape": [], "dtype": "int32"}, {"name": "split_56", "shape": [1, 1, 1024, 1024], "dtype": "float32"}, {"name": "ExpandDims_86", "shape": [1, 1024, 1, 1], "dtype": "float32"}, {"name": "Const_67", "shape": [4, 2], "dtype": "int32"}, {"name": "ConstantFolding/split_58-folded-31", "shape": [3, 3, 32, 32], "dtype": "float32"}, {"name": "concat_29/axis", "shape": [], "dtype": "int32"}, {"name": "ExpandDims_89", "shape": [1, 1024, 1, 1], "dtype": "float32"}, {"name": "split_60", "shape": [1, 1, 1024, 1024], "dtype": "float32"}, {"name": "ExpandDims_92", "shape": [1, 1024, 1, 1], "dtype": "float32"}, {"name": "ConstantFolding/split_50-folded-0", "shape": [3, 3, 32, 32], "dtype": "float32"}, {"name": "ConstantFolding/split_50-folded-1", "shape": [3, 3, 32, 32], "dtype": "float32"}, {"name": "ConstantFolding/split_50-folded-2", "shape": [3, 3, 32, 32], "dtype": "float32"}, {"name": "ConstantFolding/split_50-folded-3", "shape": [3, 3, 32, 32], "dtype": "float32"}, {"name": "ConstantFolding/split_50-folded-4", "shape": [3, 3, 32, 32], "dtype": "float32"}, {"name": "ConstantFolding/split_50-folded-5", "shape": [3, 3, 32, 32], "dtype": "float32"}, {"name": "ConstantFolding/split_50-folded-6", "shape": [3, 3, 32, 32], "dtype": "float32"}, {"name": "ConstantFolding/split_50-folded-7", "shape": [3, 3, 32, 32], "dtype": "float32"}, {"name": "ConstantFolding/split_50-folded-8", "shape": [3, 3, 32, 32], "dtype": "float32"}, {"name": "ConstantFolding/split_50-folded-9", "shape": [3, 3, 32, 32], "dtype": "float32"}, {"name": "ConstantFolding/split_50-folded-10", "shape": [3, 3, 32, 32], "dtype": "float32"}, {"name": "ConstantFolding/split_50-folded-11", "shape": [3, 3, 32, 32], "dtype": "float32"}, {"name": "ConstantFolding/split_50-folded-12", "shape": [3, 3, 32, 32], "dtype": "float32"}, {"name": "ConstantFolding/split_50-folded-13", "shape": [3, 3, 32, 32], "dtype": "float32"}, {"name": "ConstantFolding/split_50-folded-14", "shape": [3, 3, 32, 32], "dtype": "float32"}, {"name": "ConstantFolding/split_50-folded-15", "shape": [3, 3, 32, 32], "dtype": "float32"}, {"name": "ConstantFolding/split_50-folded-16", "shape": [3, 3, 32, 32], "dtype": "float32"}, {"name": "ConstantFolding/split_50-folded-17", "shape": [3, 3, 32, 32], "dtype": "float32"}, {"name": "ConstantFolding/split_50-folded-18", "shape": [3, 3, 32, 32], "dtype": "float32"}, {"name": "ConstantFolding/split_50-folded-19", "shape": [3, 3, 32, 32], "dtype": "float32"}, {"name": "ConstantFolding/split_50-folded-20", "shape": [3, 3, 32, 32], "dtype": "float32"}, {"name": "ConstantFolding/split_50-folded-21", "shape": [3, 3, 32, 32], "dtype": "float32"}, {"name": "ConstantFolding/split_50-folded-22", "shape": [3, 3, 32, 32], "dtype": "float32"}, {"name": "ConstantFolding/split_50-folded-23", "shape": [3, 3, 32, 32], "dtype": "float32"}, {"name": "ConstantFolding/split_50-folded-24", "shape": [3, 3, 32, 32], "dtype": "float32"}, {"name": "ConstantFolding/split_50-folded-25", "shape": [3, 3, 32, 32], "dtype": "float32"}, {"name": "ConstantFolding/split_50-folded-26", "shape": [3, 3, 32, 32], "dtype": "float32"}, {"name": "ConstantFolding/split_50-folded-27", "shape": [3, 3, 32, 32], "dtype": "float32"}, {"name": "ConstantFolding/split_50-folded-28", "shape": [3, 3, 32, 32], "dtype": "float32"}, {"name": "ConstantFolding/split_50-folded-29", "shape": [3, 3, 32, 32], "dtype": "float32"}, {"name": "ConstantFolding/split_50-folded-30", "shape": [3, 3, 32, 32], "dtype": "float32"}, {"name": "split_51/split_dim", "shape": [], "dtype": "int32"}, {"name": "split_48", "shape": [1, 1, 512, 1024], "dtype": "float32"}, {"name": "ExpandDims_74", "shape": [1, 1024, 1, 1], "dtype": "float32"}, {"name": "Const_58", "shape": [4, 2], "dtype": "int32"}, {"name": "ConstantFolding/split_50-folded-31", "shape": [3, 3, 32, 32], "dtype": "float32"}, {"name": "concat_25/axis", "shape": [], "dtype": "int32"}, {"name": "ExpandDims_77", "shape": [1, 1024, 1, 1], "dtype": "float32"}, {"name": "split_52", "shape": [1, 1, 1024, 1024], "dtype": "float32"}, {"name": "ExpandDims_80", "shape": [1, 1024, 1, 1], "dtype": "float32"}, {"name": "split_54", "shape": [1, 1, 512, 1024], "dtype": "float32"}, {"name": "ExpandDims_83", "shape": [1, 1024, 1, 1], "dtype": "float32"}, {"name": "Const_248", "shape": [4, 2], "dtype": "int32"}, {"name": "split_212", "shape": [3, 3, 1024, 256], "dtype": "float32"}, {"name": "LogicalAnd_1", "shape": [], "dtype": "bool"}, {"name": "1394", "shape": [4], "dtype": "float32"}, {"name": "Const_272", "shape": [4, 2], "dtype": "int32"}, {"name": "split_228", "shape": [3, 3, 256, 256], "dtype": "float32"}, {"name": "ExpandDims_332", "shape": [1, 256, 1, 1], "dtype": "float32"}, {"name": "Const_275", "shape": [4, 2], "dtype": "int32"}, {"name": "split_230", "shape": [3, 3, 256, 256], "dtype": "float32"}, {"name": "ExpandDims_335", "shape": [1, 256, 1, 1], "dtype": "float32"}, {"name": "ConstantFolding/split_44-folded-0", "shape": [3, 3, 16, 16], "dtype": "float32"}, {"name": "ConstantFolding/split_44-folded-1", "shape": [3, 3, 16, 16], "dtype": "float32"}, {"name": "ConstantFolding/split_44-folded-2", "shape": [3, 3, 16, 16], "dtype": "float32"}, {"name": "ConstantFolding/split_44-folded-3", "shape": [3, 3, 16, 16], "dtype": "float32"}, {"name": "ConstantFolding/split_44-folded-4", "shape": [3, 3, 16, 16], "dtype": "float32"}, {"name": "ConstantFolding/split_44-folded-5", "shape": [3, 3, 16, 16], "dtype": "float32"}, {"name": "ConstantFolding/split_44-folded-6", "shape": [3, 3, 16, 16], "dtype": "float32"}, {"name": "ConstantFolding/split_44-folded-7", "shape": [3, 3, 16, 16], "dtype": "float32"}, {"name": "ConstantFolding/split_44-folded-8", "shape": [3, 3, 16, 16], "dtype": "float32"}, {"name": "ConstantFolding/split_44-folded-9", "shape": [3, 3, 16, 16], "dtype": "float32"}, {"name": "ConstantFolding/split_44-folded-10", "shape": [3, 3, 16, 16], "dtype": "float32"}, {"name": "ConstantFolding/split_44-folded-11", "shape": [3, 3, 16, 16], "dtype": "float32"}, {"name": "ConstantFolding/split_44-folded-12", "shape": [3, 3, 16, 16], "dtype": "float32"}, {"name": "ConstantFolding/split_44-folded-13", "shape": [3, 3, 16, 16], "dtype": "float32"}, {"name": "ConstantFolding/split_44-folded-14", "shape": [3, 3, 16, 16], "dtype": "float32"}, {"name": "ConstantFolding/split_44-folded-15", "shape": [3, 3, 16, 16], "dtype": "float32"}, {"name": "ConstantFolding/split_44-folded-16", "shape": [3, 3, 16, 16], "dtype": "float32"}, {"name": "ConstantFolding/split_44-folded-17", "shape": [3, 3, 16, 16], "dtype": "float32"}, {"name": "ConstantFolding/split_44-folded-18", "shape": [3, 3, 16, 16], "dtype": "float32"}, {"name": "ConstantFolding/split_44-folded-19", "shape": [3, 3, 16, 16], "dtype": "float32"}, {"name": "ConstantFolding/split_44-folded-20", "shape": [3, 3, 16, 16], "dtype": "float32"}, {"name": "ConstantFolding/split_44-folded-21", "shape": [3, 3, 16, 16], "dtype": "float32"}, {"name": "ConstantFolding/split_44-folded-22", "shape": [3, 3, 16, 16], "dtype": "float32"}, {"name": "ConstantFolding/split_44-folded-23", "shape": [3, 3, 16, 16], "dtype": "float32"}, {"name": "ConstantFolding/split_44-folded-24", "shape": [3, 3, 16, 16], "dtype": "float32"}, {"name": "ConstantFolding/split_44-folded-25", "shape": [3, 3, 16, 16], "dtype": "float32"}, {"name": "ConstantFolding/split_44-folded-26", "shape": [3, 3, 16, 16], "dtype": "float32"}, {"name": "ConstantFolding/split_44-folded-27", "shape": [3, 3, 16, 16], "dtype": "float32"}, {"name": "ConstantFolding/split_44-folded-28", "shape": [3, 3, 16, 16], "dtype": "float32"}, {"name": "ConstantFolding/split_44-folded-29", "shape": [3, 3, 16, 16], "dtype": "float32"}, {"name": "ConstantFolding/split_44-folded-30", "shape": [3, 3, 16, 16], "dtype": "float32"}, {"name": "split_45/split_dim", "shape": [], "dtype": "int32"}, {"name": "split_42", "shape": [1, 1, 512, 512], "dtype": "float32"}, {"name": "ExpandDims_65", "shape": [1, 512, 1, 1], "dtype": "float32"}, {"name": "Const_51", "shape": [4, 2], "dtype": "int32"}, {"name": "ConstantFolding/split_44-folded-31", "shape": [3, 3, 16, 16], "dtype": "float32"}, {"name": "concat_22/axis", "shape": [], "dtype": "int32"}, {"name": "ExpandDims_68", "shape": [1, 512, 1, 1], "dtype": "float32"}, {"name": "split_46", "shape": [1, 1, 512, 512], "dtype": "float32"}, {"name": "ExpandDims_71", "shape": [1, 512, 1, 1], "dtype": "float32"}, {"name": "ConstantFolding/split_38-folded-0", "shape": [3, 3, 16, 16], "dtype": "float32"}, {"name": "ConstantFolding/split_38-folded-1", "shape": [3, 3, 16, 16], "dtype": "float32"}, {"name": "ConstantFolding/split_38-folded-2", "shape": [3, 3, 16, 16], "dtype": "float32"}, {"name": "ConstantFolding/split_38-folded-3", "shape": [3, 3, 16, 16], "dtype": "float32"}, {"name": "ConstantFolding/split_38-folded-4", "shape": [3, 3, 16, 16], "dtype": "float32"}, {"name": "ConstantFolding/split_38-folded-5", "shape": [3, 3, 16, 16], "dtype": "float32"}, {"name": "ConstantFolding/split_38-folded-6", "shape": [3, 3, 16, 16], "dtype": "float32"}, {"name": "ConstantFolding/split_38-folded-7", "shape": [3, 3, 16, 16], "dtype": "float32"}, {"name": "ConstantFolding/split_38-folded-8", "shape": [3, 3, 16, 16], "dtype": "float32"}, {"name": "ConstantFolding/split_38-folded-9", "shape": [3, 3, 16, 16], "dtype": "float32"}, {"name": "ConstantFolding/split_38-folded-10", "shape": [3, 3, 16, 16], "dtype": "float32"}, {"name": "ConstantFolding/split_38-folded-11", "shape": [3, 3, 16, 16], "dtype": "float32"}, {"name": "ConstantFolding/split_38-folded-12", "shape": [3, 3, 16, 16], "dtype": "float32"}, {"name": "ConstantFolding/split_38-folded-13", "shape": [3, 3, 16, 16], "dtype": "float32"}, {"name": "ConstantFolding/split_38-folded-14", "shape": [3, 3, 16, 16], "dtype": "float32"}, {"name": "ConstantFolding/split_38-folded-15", "shape": [3, 3, 16, 16], "dtype": "float32"}, {"name": "ConstantFolding/split_38-folded-16", "shape": [3, 3, 16, 16], "dtype": "float32"}, {"name": "ConstantFolding/split_38-folded-17", "shape": [3, 3, 16, 16], "dtype": "float32"}, {"name": "ConstantFolding/split_38-folded-18", "shape": [3, 3, 16, 16], "dtype": "float32"}, {"name": "ConstantFolding/split_38-folded-19", "shape": [3, 3, 16, 16], "dtype": "float32"}, {"name": "ConstantFolding/split_38-folded-20", "shape": [3, 3, 16, 16], "dtype": "float32"}, {"name": "ConstantFolding/split_38-folded-21", "shape": [3, 3, 16, 16], "dtype": "float32"}, {"name": "ConstantFolding/split_38-folded-22", "shape": [3, 3, 16, 16], "dtype": "float32"}, {"name": "ConstantFolding/split_38-folded-23", "shape": [3, 3, 16, 16], "dtype": "float32"}, {"name": "ConstantFolding/split_38-folded-24", "shape": [3, 3, 16, 16], "dtype": "float32"}, {"name": "ConstantFolding/split_38-folded-25", "shape": [3, 3, 16, 16], "dtype": "float32"}, {"name": "ConstantFolding/split_38-folded-26", "shape": [3, 3, 16, 16], "dtype": "float32"}, {"name": "ConstantFolding/split_38-folded-27", "shape": [3, 3, 16, 16], "dtype": "float32"}, {"name": "ConstantFolding/split_38-folded-28", "shape": [3, 3, 16, 16], "dtype": "float32"}, {"name": "ConstantFolding/split_38-folded-29", "shape": [3, 3, 16, 16], "dtype": "float32"}, {"name": "ConstantFolding/split_38-folded-30", "shape": [3, 3, 16, 16], "dtype": "float32"}, {"name": "split_39/split_dim", "shape": [], "dtype": "int32"}, {"name": "split_36", "shape": [1, 1, 512, 512], "dtype": "float32"}, {"name": "ExpandDims_56", "shape": [1, 512, 1, 1], "dtype": "float32"}, {"name": "Const_44", "shape": [4, 2], "dtype": "int32"}, {"name": "ConstantFolding/split_38-folded-31", "shape": [3, 3, 16, 16], "dtype": "float32"}, {"name": "concat_19/axis", "shape": [], "dtype": "int32"}, {"name": "ExpandDims_59", "shape": [1, 512, 1, 1], "dtype": "float32"}, {"name": "split_40", "shape": [1, 1, 512, 512], "dtype": "float32"}, {"name": "ExpandDims_62", "shape": [1, 512, 1, 1], "dtype": "float32"}, {"name": "ConstantFolding/split_32-folded-0", "shape": [3, 3, 16, 16], "dtype": "float32"}, {"name": "ConstantFolding/split_32-folded-1", "shape": [3, 3, 16, 16], "dtype": "float32"}, {"name": "ConstantFolding/split_32-folded-2", "shape": [3, 3, 16, 16], "dtype": "float32"}, {"name": "ConstantFolding/split_32-folded-3", "shape": [3, 3, 16, 16], "dtype": "float32"}, {"name": "ConstantFolding/split_32-folded-4", "shape": [3, 3, 16, 16], "dtype": "float32"}, {"name": "ConstantFolding/split_32-folded-5", "shape": [3, 3, 16, 16], "dtype": "float32"}, {"name": "ConstantFolding/split_32-folded-6", "shape": [3, 3, 16, 16], "dtype": "float32"}, {"name": "ConstantFolding/split_32-folded-7", "shape": [3, 3, 16, 16], "dtype": "float32"}, {"name": "ConstantFolding/split_32-folded-8", "shape": [3, 3, 16, 16], "dtype": "float32"}, {"name": "ConstantFolding/split_32-folded-9", "shape": [3, 3, 16, 16], "dtype": "float32"}, {"name": "ConstantFolding/split_32-folded-10", "shape": [3, 3, 16, 16], "dtype": "float32"}, {"name": "ConstantFolding/split_32-folded-11", "shape": [3, 3, 16, 16], "dtype": "float32"}, {"name": "ConstantFolding/split_32-folded-12", "shape": [3, 3, 16, 16], "dtype": "float32"}, {"name": "ConstantFolding/split_32-folded-13", "shape": [3, 3, 16, 16], "dtype": "float32"}, {"name": "ConstantFolding/split_32-folded-14", "shape": [3, 3, 16, 16], "dtype": "float32"}, {"name": "ConstantFolding/split_32-folded-15", "shape": [3, 3, 16, 16], "dtype": "float32"}, {"name": "ConstantFolding/split_32-folded-16", "shape": [3, 3, 16, 16], "dtype": "float32"}, {"name": "ConstantFolding/split_32-folded-17", "shape": [3, 3, 16, 16], "dtype": "float32"}, {"name": "ConstantFolding/split_32-folded-18", "shape": [3, 3, 16, 16], "dtype": "float32"}, {"name": "ConstantFolding/split_32-folded-19", "shape": [3, 3, 16, 16], "dtype": "float32"}, {"name": "ConstantFolding/split_32-folded-20", "shape": [3, 3, 16, 16], "dtype": "float32"}, {"name": "ConstantFolding/split_32-folded-21", "shape": [3, 3, 16, 16], "dtype": "float32"}, {"name": "ConstantFolding/split_32-folded-22", "shape": [3, 3, 16, 16], "dtype": "float32"}, {"name": "ConstantFolding/split_32-folded-23", "shape": [3, 3, 16, 16], "dtype": "float32"}, {"name": "ConstantFolding/split_32-folded-24", "shape": [3, 3, 16, 16], "dtype": "float32"}, {"name": "ConstantFolding/split_32-folded-25", "shape": [3, 3, 16, 16], "dtype": "float32"}, {"name": "ConstantFolding/split_32-folded-26", "shape": [3, 3, 16, 16], "dtype": "float32"}, {"name": "ConstantFolding/split_32-folded-27", "shape": [3, 3, 16, 16], "dtype": "float32"}, {"name": "ConstantFolding/split_32-folded-28", "shape": [3, 3, 16, 16], "dtype": "float32"}, {"name": "ConstantFolding/split_32-folded-29", "shape": [3, 3, 16, 16], "dtype": "float32"}, {"name": "ConstantFolding/split_32-folded-30", "shape": [3, 3, 16, 16], "dtype": "float32"}, {"name": "split_33/split_dim", "shape": [], "dtype": "int32"}, {"name": "split_30", "shape": [1, 1, 512, 512], "dtype": "float32"}, {"name": "ExpandDims_47", "shape": [1, 512, 1, 1], "dtype": "float32"}, {"name": "Const_37", "shape": [4, 2], "dtype": "int32"}, {"name": "ConstantFolding/split_32-folded-31", "shape": [3, 3, 16, 16], "dtype": "float32"}, {"name": "concat_16/axis", "shape": [], "dtype": "int32"}, {"name": "ExpandDims_50", "shape": [1, 512, 1, 1], "dtype": "float32"}, {"name": "split_34", "shape": [1, 1, 512, 512], "dtype": "float32"}, {"name": "ExpandDims_53", "shape": [1, 512, 1, 1], "dtype": "float32"}, {"name": "ConstantFolding/split_24-folded-0", "shape": [3, 3, 16, 16], "dtype": "float32"}, {"name": "ConstantFolding/split_24-folded-1", "shape": [3, 3, 16, 16], "dtype": "float32"}, {"name": "ConstantFolding/split_24-folded-2", "shape": [3, 3, 16, 16], "dtype": "float32"}, {"name": "ConstantFolding/split_24-folded-3", "shape": [3, 3, 16, 16], "dtype": "float32"}, {"name": "ConstantFolding/split_24-folded-4", "shape": [3, 3, 16, 16], "dtype": "float32"}, {"name": "ConstantFolding/split_24-folded-5", "shape": [3, 3, 16, 16], "dtype": "float32"}, {"name": "ConstantFolding/split_24-folded-6", "shape": [3, 3, 16, 16], "dtype": "float32"}, {"name": "ConstantFolding/split_24-folded-7", "shape": [3, 3, 16, 16], "dtype": "float32"}, {"name": "ConstantFolding/split_24-folded-8", "shape": [3, 3, 16, 16], "dtype": "float32"}, {"name": "ConstantFolding/split_24-folded-9", "shape": [3, 3, 16, 16], "dtype": "float32"}, {"name": "ConstantFolding/split_24-folded-10", "shape": [3, 3, 16, 16], "dtype": "float32"}, {"name": "ConstantFolding/split_24-folded-11", "shape": [3, 3, 16, 16], "dtype": "float32"}, {"name": "ConstantFolding/split_24-folded-12", "shape": [3, 3, 16, 16], "dtype": "float32"}, {"name": "ConstantFolding/split_24-folded-13", "shape": [3, 3, 16, 16], "dtype": "float32"}, {"name": "ConstantFolding/split_24-folded-14", "shape": [3, 3, 16, 16], "dtype": "float32"}, {"name": "ConstantFolding/split_24-folded-15", "shape": [3, 3, 16, 16], "dtype": "float32"}, {"name": "ConstantFolding/split_24-folded-16", "shape": [3, 3, 16, 16], "dtype": "float32"}, {"name": "ConstantFolding/split_24-folded-17", "shape": [3, 3, 16, 16], "dtype": "float32"}, {"name": "ConstantFolding/split_24-folded-18", "shape": [3, 3, 16, 16], "dtype": "float32"}, {"name": "ConstantFolding/split_24-folded-19", "shape": [3, 3, 16, 16], "dtype": "float32"}, {"name": "ConstantFolding/split_24-folded-20", "shape": [3, 3, 16, 16], "dtype": "float32"}, {"name": "ConstantFolding/split_24-folded-21", "shape": [3, 3, 16, 16], "dtype": "float32"}, {"name": "ConstantFolding/split_24-folded-22", "shape": [3, 3, 16, 16], "dtype": "float32"}, {"name": "ConstantFolding/split_24-folded-23", "shape": [3, 3, 16, 16], "dtype": "float32"}, {"name": "ConstantFolding/split_24-folded-24", "shape": [3, 3, 16, 16], "dtype": "float32"}, {"name": "ConstantFolding/split_24-folded-25", "shape": [3, 3, 16, 16], "dtype": "float32"}, {"name": "ConstantFolding/split_24-folded-26", "shape": [3, 3, 16, 16], "dtype": "float32"}, {"name": "ConstantFolding/split_24-folded-27", "shape": [3, 3, 16, 16], "dtype": "float32"}, {"name": "ConstantFolding/split_24-folded-28", "shape": [3, 3, 16, 16], "dtype": "float32"}, {"name": "ConstantFolding/split_24-folded-29", "shape": [3, 3, 16, 16], "dtype": "float32"}, {"name": "ConstantFolding/split_24-folded-30", "shape": [3, 3, 16, 16], "dtype": "float32"}, {"name": "split_25/split_dim", "shape": [], "dtype": "int32"}, {"name": "split_22", "shape": [1, 1, 256, 512], "dtype": "float32"}, {"name": "ExpandDims_35", "shape": [1, 512, 1, 1], "dtype": "float32"}, {"name": "Const_28", "shape": [4, 2], "dtype": "int32"}, {"name": "ConstantFolding/split_24-folded-31", "shape": [3, 3, 16, 16], "dtype": "float32"}, {"name": "concat_12/axis", "shape": [], "dtype": "int32"}, {"name": "ExpandDims_38", "shape": [1, 512, 1, 1], "dtype": "float32"}, {"name": "split_26", "shape": [1, 1, 512, 512], "dtype": "float32"}, {"name": "ExpandDims_41", "shape": [1, 512, 1, 1], "dtype": "float32"}, {"name": "split_28", "shape": [1, 1, 256, 512], "dtype": "float32"}, {"name": "ExpandDims_44", "shape": [1, 512, 1, 1], "dtype": "float32"}, {"name": "Const_245", "shape": [4, 2], "dtype": "int32"}, {"name": "split_210", "shape": [3, 3, 512, 256], "dtype": "float32"}, {"name": "LogicalAnd_2", "shape": [], "dtype": "bool"}, {"name": "1395", "shape": [4], "dtype": "float32"}, {"name": "Const_284", "shape": [4, 2], "dtype": "int32"}, {"name": "split_236", "shape": [3, 3, 256, 256], "dtype": "float32"}, {"name": "ExpandDims_344", "shape": [1, 256, 1, 1], "dtype": "float32"}, {"name": "Const_287", "shape": [4, 2], "dtype": "int32"}, {"name": "split_238", "shape": [3, 3, 256, 256], "dtype": "float32"}, {"name": "ExpandDims_347", "shape": [1, 256, 1, 1], "dtype": "float32"}, {"name": "ConstantFolding/split_18-folded-0", "shape": [3, 3, 8, 8], "dtype": "float32"}, {"name": "ConstantFolding/split_18-folded-1", "shape": [3, 3, 8, 8], "dtype": "float32"}, {"name": "ConstantFolding/split_18-folded-2", "shape": [3, 3, 8, 8], "dtype": "float32"}, {"name": "ConstantFolding/split_18-folded-3", "shape": [3, 3, 8, 8], "dtype": "float32"}, {"name": "ConstantFolding/split_18-folded-4", "shape": [3, 3, 8, 8], "dtype": "float32"}, {"name": "ConstantFolding/split_18-folded-5", "shape": [3, 3, 8, 8], "dtype": "float32"}, {"name": "ConstantFolding/split_18-folded-6", "shape": [3, 3, 8, 8], "dtype": "float32"}, {"name": "ConstantFolding/split_18-folded-7", "shape": [3, 3, 8, 8], "dtype": "float32"}, {"name": "ConstantFolding/split_18-folded-8", "shape": [3, 3, 8, 8], "dtype": "float32"}, {"name": "ConstantFolding/split_18-folded-9", "shape": [3, 3, 8, 8], "dtype": "float32"}, {"name": "ConstantFolding/split_18-folded-10", "shape": [3, 3, 8, 8], "dtype": "float32"}, {"name": "ConstantFolding/split_18-folded-11", "shape": [3, 3, 8, 8], "dtype": "float32"}, {"name": "ConstantFolding/split_18-folded-12", "shape": [3, 3, 8, 8], "dtype": "float32"}, {"name": "ConstantFolding/split_18-folded-13", "shape": [3, 3, 8, 8], "dtype": "float32"}, {"name": "ConstantFolding/split_18-folded-14", "shape": [3, 3, 8, 8], "dtype": "float32"}, {"name": "ConstantFolding/split_18-folded-15", "shape": [3, 3, 8, 8], "dtype": "float32"}, {"name": "ConstantFolding/split_18-folded-16", "shape": [3, 3, 8, 8], "dtype": "float32"}, {"name": "ConstantFolding/split_18-folded-17", "shape": [3, 3, 8, 8], "dtype": "float32"}, {"name": "ConstantFolding/split_18-folded-18", "shape": [3, 3, 8, 8], "dtype": "float32"}, {"name": "ConstantFolding/split_18-folded-19", "shape": [3, 3, 8, 8], "dtype": "float32"}, {"name": "ConstantFolding/split_18-folded-20", "shape": [3, 3, 8, 8], "dtype": "float32"}, {"name": "ConstantFolding/split_18-folded-21", "shape": [3, 3, 8, 8], "dtype": "float32"}, {"name": "ConstantFolding/split_18-folded-22", "shape": [3, 3, 8, 8], "dtype": "float32"}, {"name": "ConstantFolding/split_18-folded-23", "shape": [3, 3, 8, 8], "dtype": "float32"}, {"name": "ConstantFolding/split_18-folded-24", "shape": [3, 3, 8, 8], "dtype": "float32"}, {"name": "ConstantFolding/split_18-folded-25", "shape": [3, 3, 8, 8], "dtype": "float32"}, {"name": "ConstantFolding/split_18-folded-26", "shape": [3, 3, 8, 8], "dtype": "float32"}, {"name": "ConstantFolding/split_18-folded-27", "shape": [3, 3, 8, 8], "dtype": "float32"}, {"name": "ConstantFolding/split_18-folded-28", "shape": [3, 3, 8, 8], "dtype": "float32"}, {"name": "ConstantFolding/split_18-folded-29", "shape": [3, 3, 8, 8], "dtype": "float32"}, {"name": "ConstantFolding/split_18-folded-30", "shape": [3, 3, 8, 8], "dtype": "float32"}, {"name": "split_19/split_dim", "shape": [], "dtype": "int32"}, {"name": "split_16", "shape": [1, 1, 256, 256], "dtype": "float32"}, {"name": "ExpandDims_26", "shape": [1, 256, 1, 1], "dtype": "float32"}, {"name": "Const_21", "shape": [4, 2], "dtype": "int32"}, {"name": "ConstantFolding/split_18-folded-31", "shape": [3, 3, 8, 8], "dtype": "float32"}, {"name": "concat_9/axis", "shape": [], "dtype": "int32"}, {"name": "ExpandDims_29", "shape": [1, 256, 1, 1], "dtype": "float32"}, {"name": "split_20", "shape": [1, 1, 256, 256], "dtype": "float32"}, {"name": "ExpandDims_32", "shape": [1, 256, 1, 1], "dtype": "float32"}, {"name": "ConstantFolding/split_12-folded-0", "shape": [3, 3, 8, 8], "dtype": "float32"}, {"name": "ConstantFolding/split_12-folded-1", "shape": [3, 3, 8, 8], "dtype": "float32"}, {"name": "ConstantFolding/split_12-folded-2", "shape": [3, 3, 8, 8], "dtype": "float32"}, {"name": "ConstantFolding/split_12-folded-3", "shape": [3, 3, 8, 8], "dtype": "float32"}, {"name": "ConstantFolding/split_12-folded-4", "shape": [3, 3, 8, 8], "dtype": "float32"}, {"name": "ConstantFolding/split_12-folded-5", "shape": [3, 3, 8, 8], "dtype": "float32"}, {"name": "ConstantFolding/split_12-folded-6", "shape": [3, 3, 8, 8], "dtype": "float32"}, {"name": "ConstantFolding/split_12-folded-7", "shape": [3, 3, 8, 8], "dtype": "float32"}, {"name": "ConstantFolding/split_12-folded-8", "shape": [3, 3, 8, 8], "dtype": "float32"}, {"name": "ConstantFolding/split_12-folded-9", "shape": [3, 3, 8, 8], "dtype": "float32"}, {"name": "ConstantFolding/split_12-folded-10", "shape": [3, 3, 8, 8], "dtype": "float32"}, {"name": "ConstantFolding/split_12-folded-11", "shape": [3, 3, 8, 8], "dtype": "float32"}, {"name": "ConstantFolding/split_12-folded-12", "shape": [3, 3, 8, 8], "dtype": "float32"}, {"name": "ConstantFolding/split_12-folded-13", "shape": [3, 3, 8, 8], "dtype": "float32"}, {"name": "ConstantFolding/split_12-folded-14", "shape": [3, 3, 8, 8], "dtype": "float32"}, {"name": "ConstantFolding/split_12-folded-15", "shape": [3, 3, 8, 8], "dtype": "float32"}, {"name": "ConstantFolding/split_12-folded-16", "shape": [3, 3, 8, 8], "dtype": "float32"}, {"name": "ConstantFolding/split_12-folded-17", "shape": [3, 3, 8, 8], "dtype": "float32"}, {"name": "ConstantFolding/split_12-folded-18", "shape": [3, 3, 8, 8], "dtype": "float32"}, {"name": "ConstantFolding/split_12-folded-19", "shape": [3, 3, 8, 8], "dtype": "float32"}, {"name": "ConstantFolding/split_12-folded-20", "shape": [3, 3, 8, 8], "dtype": "float32"}, {"name": "ConstantFolding/split_12-folded-21", "shape": [3, 3, 8, 8], "dtype": "float32"}, {"name": "ConstantFolding/split_12-folded-22", "shape": [3, 3, 8, 8], "dtype": "float32"}, {"name": "ConstantFolding/split_12-folded-23", "shape": [3, 3, 8, 8], "dtype": "float32"}, {"name": "ConstantFolding/split_12-folded-24", "shape": [3, 3, 8, 8], "dtype": "float32"}, {"name": "ConstantFolding/split_12-folded-25", "shape": [3, 3, 8, 8], "dtype": "float32"}, {"name": "ConstantFolding/split_12-folded-26", "shape": [3, 3, 8, 8], "dtype": "float32"}, {"name": "ConstantFolding/split_12-folded-27", "shape": [3, 3, 8, 8], "dtype": "float32"}, {"name": "ConstantFolding/split_12-folded-28", "shape": [3, 3, 8, 8], "dtype": "float32"}, {"name": "ConstantFolding/split_12-folded-29", "shape": [3, 3, 8, 8], "dtype": "float32"}, {"name": "ConstantFolding/split_12-folded-30", "shape": [3, 3, 8, 8], "dtype": "float32"}, {"name": "split_13/split_dim", "shape": [], "dtype": "int32"}, {"name": "split_10", "shape": [1, 1, 256, 256], "dtype": "float32"}, {"name": "ExpandDims_17", "shape": [1, 256, 1, 1], "dtype": "float32"}, {"name": "Const_14", "shape": [4, 2], "dtype": "int32"}, {"name": "ConstantFolding/split_12-folded-31", "shape": [3, 3, 8, 8], "dtype": "float32"}, {"name": "concat_6/axis", "shape": [], "dtype": "int32"}, {"name": "ExpandDims_20", "shape": [1, 256, 1, 1], "dtype": "float32"}, {"name": "split_14", "shape": [1, 1, 256, 256], "dtype": "float32"}, {"name": "ExpandDims_23", "shape": [1, 256, 1, 1], "dtype": "float32"}, {"name": "ConstantFolding/split_4-folded-0", "shape": [3, 3, 8, 8], "dtype": "float32"}, {"name": "ConstantFolding/split_4-folded-1", "shape": [3, 3, 8, 8], "dtype": "float32"}, {"name": "ConstantFolding/split_4-folded-2", "shape": [3, 3, 8, 8], "dtype": "float32"}, {"name": "ConstantFolding/split_4-folded-3", "shape": [3, 3, 8, 8], "dtype": "float32"}, {"name": "ConstantFolding/split_4-folded-4", "shape": [3, 3, 8, 8], "dtype": "float32"}, {"name": "ConstantFolding/split_4-folded-5", "shape": [3, 3, 8, 8], "dtype": "float32"}, {"name": "ConstantFolding/split_4-folded-6", "shape": [3, 3, 8, 8], "dtype": "float32"}, {"name": "ConstantFolding/split_4-folded-7", "shape": [3, 3, 8, 8], "dtype": "float32"}, {"name": "ConstantFolding/split_4-folded-8", "shape": [3, 3, 8, 8], "dtype": "float32"}, {"name": "ConstantFolding/split_4-folded-9", "shape": [3, 3, 8, 8], "dtype": "float32"}, {"name": "ConstantFolding/split_4-folded-10", "shape": [3, 3, 8, 8], "dtype": "float32"}, {"name": "ConstantFolding/split_4-folded-11", "shape": [3, 3, 8, 8], "dtype": "float32"}, {"name": "ConstantFolding/split_4-folded-12", "shape": [3, 3, 8, 8], "dtype": "float32"}, {"name": "ConstantFolding/split_4-folded-13", "shape": [3, 3, 8, 8], "dtype": "float32"}, {"name": "ConstantFolding/split_4-folded-14", "shape": [3, 3, 8, 8], "dtype": "float32"}, {"name": "ConstantFolding/split_4-folded-15", "shape": [3, 3, 8, 8], "dtype": "float32"}, {"name": "ConstantFolding/split_4-folded-16", "shape": [3, 3, 8, 8], "dtype": "float32"}, {"name": "ConstantFolding/split_4-folded-17", "shape": [3, 3, 8, 8], "dtype": "float32"}, {"name": "ConstantFolding/split_4-folded-18", "shape": [3, 3, 8, 8], "dtype": "float32"}, {"name": "ConstantFolding/split_4-folded-19", "shape": [3, 3, 8, 8], "dtype": "float32"}, {"name": "ConstantFolding/split_4-folded-20", "shape": [3, 3, 8, 8], "dtype": "float32"}, {"name": "ConstantFolding/split_4-folded-21", "shape": [3, 3, 8, 8], "dtype": "float32"}, {"name": "ConstantFolding/split_4-folded-22", "shape": [3, 3, 8, 8], "dtype": "float32"}, {"name": "ConstantFolding/split_4-folded-23", "shape": [3, 3, 8, 8], "dtype": "float32"}, {"name": "ConstantFolding/split_4-folded-24", "shape": [3, 3, 8, 8], "dtype": "float32"}, {"name": "ConstantFolding/split_4-folded-25", "shape": [3, 3, 8, 8], "dtype": "float32"}, {"name": "ConstantFolding/split_4-folded-26", "shape": [3, 3, 8, 8], "dtype": "float32"}, {"name": "ConstantFolding/split_4-folded-27", "shape": [3, 3, 8, 8], "dtype": "float32"}, {"name": "ConstantFolding/split_4-folded-28", "shape": [3, 3, 8, 8], "dtype": "float32"}, {"name": "ConstantFolding/split_4-folded-29", "shape": [3, 3, 8, 8], "dtype": "float32"}, {"name": "ConstantFolding/split_4-folded-30", "shape": [3, 3, 8, 8], "dtype": "float32"}, {"name": "split_5/split_dim", "shape": [], "dtype": "int32"}, {"name": "split_2", "shape": [1, 1, 64, 256], "dtype": "float32"}, {"name": "ExpandDims_5", "shape": [1, 256, 1, 1], "dtype": "float32"}, {"name": "Const_5", "shape": [4, 2], "dtype": "int32"}, {"name": "ConstantFolding/split_4-folded-31", "shape": [3, 3, 8, 8], "dtype": "float32"}, {"name": "concat_2/axis", "shape": [], "dtype": "int32"}, {"name": "ExpandDims_8", "shape": [1, 256, 1, 1], "dtype": "float32"}, {"name": "split_6", "shape": [1, 1, 256, 256], "dtype": "float32"}, {"name": "ExpandDims_11", "shape": [1, 256, 1, 1], "dtype": "float32"}, {"name": "Constant_0", "shape": [1, 3, 1, 1], "dtype": "float32"}, {"name": "ConstantFolding/Div_3_recip", "shape": [1, 3, 1, 1], "dtype": "float32"}, {"name": "Const", "shape": [4, 2], "dtype": "int32"}, {"name": "split", "shape": [7, 7, 3, 64], "dtype": "float32"}, {"name": "ExpandDims_2", "shape": [1, 64, 1, 1], "dtype": "float32"}, {"name": "transpose_1/perm", "shape": [4], "dtype": "int32"}, {"name": "PadV2/paddings", "shape": [4, 2], "dtype": "int32"}, {"name": "PadV2/constant_values", "shape": [], "dtype": "float32"}, {"name": "transpose_2/perm", "shape": [4], "dtype": "int32"}, {"name": "split_8", "shape": [1, 1, 64, 256], "dtype": "float32"}, {"name": "ExpandDims_14", "shape": [1, 256, 1, 1], "dtype": "float32"}, {"name": "Const_242", "shape": [4, 2], "dtype": "int32"}, {"name": "split_208", "shape": [3, 3, 256, 256], "dtype": "float32"}, {"name": "LogicalAnd_3", "shape": [], "dtype": "bool"}, {"name": "1396", "shape": [4], "dtype": "float32"}, {"name": "Const_296", "shape": [4, 2], "dtype": "int32"}, {"name": "split_244", "shape": [3, 3, 256, 128], "dtype": "float32"}, {"name": "ExpandDims_356", "shape": [1, 128, 1, 1], "dtype": "float32"}, {"name": "LogicalAnd_4", "shape": [], "dtype": "bool"}, {"name": "1397", "shape": [4], "dtype": "float32"}, {"name": "Const_299", "shape": [4, 2], "dtype": "int32"}, {"name": "split_246", "shape": [3, 3, 128, 32], "dtype": "float32"}, {"name": "ExpandDims_359", "shape": [1, 32, 1, 1], "dtype": "float32"}, {"name": "split_248", "shape": [1, 1, 32, 1], "dtype": "float32"}, {"name": "scratch.output_conv.4.bias", "shape": [1], "dtype": "float32"}, {"name": "transpose_112/perm", "shape": [4], "dtype": "int32"}, {"name": "Cast", "shape": [2], "dtype": "int32"}, {"name": "transpose_113/perm", "shape": [4], "dtype": "int32"}, {"name": "transpose_118/perm", "shape": [4], "dtype": "int32"}, {"name": "Cast_1", "shape": [2], "dtype": "int32"}, {"name": "transpose_119/perm", "shape": [4], "dtype": "int32"}, {"name": "transpose_124/perm", "shape": [4], "dtype": "int32"}, {"name": "Cast_2", "shape": [2], "dtype": "int32"}, {"name": "transpose_125/perm", "shape": [4], "dtype": "int32"}, {"name": "transpose_130/perm", "shape": [4], "dtype": "int32"}, {"name": "Cast_3", "shape": [2], "dtype": "int32"}, {"name": "transpose_131/perm", "shape": [4], "dtype": "int32"}, {"name": "transpose_133/perm", "shape": [4], "dtype": "int32"}, {"name": "Cast_4", "shape": [2], "dtype": "int32"}, {"name": "transpose_134/perm", "shape": [4], "dtype": "int32"}]}]}